…
I0224 22:43:04.241133 56606 net.cpp:49] Initializing net from parameters: 
name: "FlickrStyleCaffeNet"
state {
  phase: TRAIN
}
layer {
  name: "data"
  type: "ImageData"
  top: "data"
  top: "label"
  include {
    phase: TRAIN
  }
  transform_param {
    mirror: true
    crop_size: 227
    mean_file: "/scratch/16824/models/imagenet_mean.binaryproto"
  }
  image_data_param {
    source: "/scratch/16824/data/trainlist_class.txt"
    batch_size: 50
    shuffle: true
    new_height: 256
    new_width: 256
    root_folder: "/scratch/16824/data/crop_imgs/"
  }
}
layer {
  name: "conv1"
  type: "Convolution"
  bottom: "data"
  top: "conv1"
  param {
    lr_mult: 1
    decay_mult: 1
  }
  param {
    lr_mult: 2
    decay_mult: 0
  }
  convolution_param {
    num_output: 96
    kernel_size: 11
    stride: 4
    weight_filler {
      type: "gaussian"
      std: 0.01
    }
    bias_filler {
      type: "constant"
      value: 0
    }
  }
}
layer {
  name: "relu1"
  type: "ReLU"
  bottom: "conv1"
  top: "conv1"
}
layer {
  name: "pool1"
  type: "Pooling"
  bottom: "conv1"
  top: "pool1"
  pooling_param {
    pool: MAX
    kernel_size: 3
    stride: 2
  }
}
layer {
  name: "norm1"
  type: "LRN"
  bottom: "pool1"
  top: "norm1"
  lrn_param {
    local_size: 5
    alpha: 0.0001
    beta: 0.75
  }
}
layer {
  name: "conv2"
  type: "Convolution"
  bottom: "norm1"
  top: "conv2"
  param {
    lr_mult: 1
    decay_mult: 1
  }
  param {
    lr_mult: 2
    decay_mult: 0
  }
  convolution_param {
    num_output: 256
    pad: 2
    kernel_size: 5
    group: 2
    weight_filler {
      type: "gaussian"
      std: 0.01
    }
    bias_filler {
      type: "constant"
      value: 1
    }
  }
}
layer {
  name: "relu2"
  type: "ReLU"
  bottom: "conv2"
  top: "conv2"
}
layer {
  name: "pool2"
  type: "Pooling"
  bottom: "conv2"
  top: "pool2"
  pooling_param {
    pool: MAX
    kernel_size: 3
    stride: 2
  }
}
layer {
  name: "norm2"
  type: "LRN"
  bottom: "pool2"
  top: "norm2"
  lrn_param {
    local_size: 5
    alpha: 0.0001
    beta: 0.75
  }
}
layer {
  name: "conv3"
  type: "Convolution"
  bottom: "norm2"
  top: "conv3"
  param {
    lr_mult: 1
    decay_mult: 1
  }
  param {
    lr_mult: 2
    decay_mult: 0
  }
  convolution_param {
    num_output: 384
    pad: 1
    kernel_size: 3
    weight_filler {
      type: "gaussian"
      std: 0.01
    }
    bias_filler {
      type: "constant"
      value: 0
    }
  }
}
layer {
  name: "relu3"
  type: "ReLU"
  bottom: "conv3"
  top: "conv3"
}
layer {
  name: "conv4"
  type: "Convolution"
  bottom: "conv3"
  top: "conv4"
  param {
    lr_mult: 1
    decay_mult: 1
  }
  param {
    lr_mult: 2
    decay_mult: 0
  }
  convolution_param {
    num_output: 384
    pad: 1
    kernel_size: 3
    group: 2
    weight_filler {
      type: "gaussian"
      std: 0.01
    }
    bias_filler {
      type: "constant"
      value: 1
    }
  }
}
layer {
  name: "relu4"
  type: "ReLU"
  bottom: "conv4"
  top: "conv4"
}
layer {
  name: "conv5"
  type: "Convolution"
  bottom: "conv4"
  top: "conv5"
  param {
    lr_mult: 1
    decay_mult: 1
  }
  param {
    lr_mult: 2
    decay_mult: 0
  }
  convolution_param {
    num_output: 256
    pad: 1
    kernel_size: 3
    group: 2
    weight_filler {
      type: "gaussian"
      std: 0.01
    }
    bias_filler {
      type: "constant"
      value: 1
    }
  }
}
layer {
  name: "relu5"
  type: "ReLU"
  bottom: "conv5"
  top: "conv5"
}
layer {
  name: "pool5"
  type: "Pooling"
  bottom: "conv5"
  top: "pool5"
  pooling_param {
    pool: MAX
    kernel_size: 3
    stride: 2
  }
}
layer {
  name: "fc6"
  type: "InnerProduct"
  bottom: "pool5"
  top: "fc6"
  param {
    lr_mult: 1
    decay_mult: 1
  }
  param {
    lr_mult: 2
    decay_mult: 0
  }
  inner_product_param {
    num_output: 4096
    weight_filler {
      type: "gaussian"
      std: 0.005
    }
    bias_filler {
      type: "constant"
      value: 1
    }
  }
}
layer {
  name: "relu6"
  type: "ReLU"
  bottom: "fc6"
  top: "fc6"
}
layer {
  name: "drop6"
  type: "Dropout"
  bottom: "fc6"
  top: "fc6"
  dropout_param {
    dropout_ratio: 0.5
  }
}
layer {
  name: "fc7"
  type: "InnerProduct"
  bottom: "fc6"
  top: "fc7"
  param {
    lr_mult: 1
    decay_mult: 1
  }
  param {
    lr_mult: 2
    decay_mult: 0
  }
  inner_product_param {
    num_output: 4096
    weight_filler {
      type: "gaussian"
      std: 0.005
    }
    bias_filler {
      type: "constant"
      value: 1
    }
  }
}
layer {
  name: "relu7"
  type: "ReLU"
  bottom: "fc7"
  top: "fc7"
}
layer {
  name: "drop7"
  type: "Dropout"
  bottom: "fc7"
  top: "fc7"
  dropout_param {
    dropout_ratio: 0.5
  }
}
layer {
  name: "fc8_flickr"
  type: "InnerProduct"
  bottom: "fc7"
  top: "fc8_flickr"
  param {
    lr_mult: 10
    decay_mult: 1
  }
  param {
    lr_mult: 20
    decay_mult: 0
  }
  inner_product_param {
    num_output: 30
    weight_filler {
      type: "gaussian"
      std: 0.01
    }
    bias_filler {
      type: "constant"
      value: 0
    }
  }
}
layer {
  name: "loss"
  type: "SoftmaxWithLoss"
  bottom: "fc8_flickr"
  bottom: "label"
  top: "loss"
}
I0224 22:43:04.241206 56606 layer_factory.hpp:77] Creating layer data
I0224 22:43:04.241225 56606 net.cpp:106] Creating Layer data
I0224 22:43:04.241230 56606 net.cpp:411] data -> data
I0224 22:43:04.241243 56606 net.cpp:411] data -> label
I0224 22:43:04.241251 56606 data_transformer.cpp:25] Loading mean file from: /scratch/16824/models/imagenet_mean.binaryproto
I0224 22:43:04.250882 56606 image_data_layer.cpp:38] Opening file /scratch/16824/data/trainlist_class.txt
I0224 22:43:04.262719 56606 image_data_layer.cpp:48] Shuffling data
I0224 22:43:04.264861 56606 image_data_layer.cpp:53] A total of 36752 images.
I0224 22:43:04.265975 56606 image_data_layer.cpp:80] output data size: 50,3,227,227
I0224 22:43:04.329563 56606 net.cpp:150] Setting up data
I0224 22:43:04.329602 56606 net.cpp:157] Top shape: 50 3 227 227 (7729350)
I0224 22:43:04.329605 56606 net.cpp:157] Top shape: 50 (50)
I0224 22:43:04.329608 56606 net.cpp:165] Memory required for data: 30917600
I0224 22:43:04.329615 56606 layer_factory.hpp:77] Creating layer conv1
I0224 22:43:04.329635 56606 net.cpp:106] Creating Layer conv1
I0224 22:43:04.329639 56606 net.cpp:454] conv1 <- data
I0224 22:43:04.329646 56606 net.cpp:411] conv1 -> conv1
I0224 22:43:04.505255 56606 net.cpp:150] Setting up conv1
I0224 22:43:04.505281 56606 net.cpp:157] Top shape: 50 96 55 55 (14520000)
I0224 22:43:04.505285 56606 net.cpp:165] Memory required for data: 88997600
I0224 22:43:04.505300 56606 layer_factory.hpp:77] Creating layer relu1
I0224 22:43:04.505313 56606 net.cpp:106] Creating Layer relu1
I0224 22:43:04.505316 56606 net.cpp:454] relu1 <- conv1
I0224 22:43:04.505321 56606 net.cpp:397] relu1 -> conv1 (in-place)
I0224 22:43:04.505549 56606 net.cpp:150] Setting up relu1
I0224 22:43:04.505558 56606 net.cpp:157] Top shape: 50 96 55 55 (14520000)
I0224 22:43:04.505560 56606 net.cpp:165] Memory required for data: 147077600
I0224 22:43:04.505563 56606 layer_factory.hpp:77] Creating layer pool1
I0224 22:43:04.505573 56606 net.cpp:106] Creating Layer pool1
I0224 22:43:04.505574 56606 net.cpp:454] pool1 <- conv1
I0224 22:43:04.505579 56606 net.cpp:411] pool1 -> pool1
I0224 22:43:04.505615 56606 net.cpp:150] Setting up pool1
I0224 22:43:04.505625 56606 net.cpp:157] Top shape: 50 96 27 27 (3499200)
I0224 22:43:04.505626 56606 net.cpp:165] Memory required for data: 161074400
I0224 22:43:04.505630 56606 layer_factory.hpp:77] Creating layer norm1
I0224 22:43:04.505637 56606 net.cpp:106] Creating Layer norm1
I0224 22:43:04.505640 56606 net.cpp:454] norm1 <- pool1
I0224 22:43:04.505643 56606 net.cpp:411] norm1 -> norm1
I0224 22:43:04.505801 56606 net.cpp:150] Setting up norm1
I0224 22:43:04.505808 56606 net.cpp:157] Top shape: 50 96 27 27 (3499200)
I0224 22:43:04.505810 56606 net.cpp:165] Memory required for data: 175071200
I0224 22:43:04.505813 56606 layer_factory.hpp:77] Creating layer conv2
I0224 22:43:04.505822 56606 net.cpp:106] Creating Layer conv2
I0224 22:43:04.505825 56606 net.cpp:454] conv2 <- norm1
I0224 22:43:04.505830 56606 net.cpp:411] conv2 -> conv2
I0224 22:43:04.510862 56606 net.cpp:150] Setting up conv2
I0224 22:43:04.510874 56606 net.cpp:157] Top shape: 50 256 27 27 (9331200)
I0224 22:43:04.510876 56606 net.cpp:165] Memory required for data: 212396000
I0224 22:43:04.510884 56606 layer_factory.hpp:77] Creating layer relu2
I0224 22:43:04.510888 56606 net.cpp:106] Creating Layer relu2
I0224 22:43:04.510891 56606 net.cpp:454] relu2 <- conv2
I0224 22:43:04.510895 56606 net.cpp:397] relu2 -> conv2 (in-place)
I0224 22:43:04.511034 56606 net.cpp:150] Setting up relu2
I0224 22:43:04.511039 56606 net.cpp:157] Top shape: 50 256 27 27 (9331200)
I0224 22:43:04.511042 56606 net.cpp:165] Memory required for data: 249720800
I0224 22:43:04.511044 56606 layer_factory.hpp:77] Creating layer pool2
I0224 22:43:04.511049 56606 net.cpp:106] Creating Layer pool2
I0224 22:43:04.511052 56606 net.cpp:454] pool2 <- conv2
I0224 22:43:04.511056 56606 net.cpp:411] pool2 -> pool2
I0224 22:43:04.511091 56606 net.cpp:150] Setting up pool2
I0224 22:43:04.511097 56606 net.cpp:157] Top shape: 50 256 13 13 (2163200)
I0224 22:43:04.511101 56606 net.cpp:165] Memory required for data: 258373600
I0224 22:43:04.511103 56606 layer_factory.hpp:77] Creating layer norm2
I0224 22:43:04.511109 56606 net.cpp:106] Creating Layer norm2
I0224 22:43:04.511111 56606 net.cpp:454] norm2 <- pool2
I0224 22:43:04.511116 56606 net.cpp:411] norm2 -> norm2
I0224 22:43:04.511360 56606 net.cpp:150] Setting up norm2
I0224 22:43:04.511369 56606 net.cpp:157] Top shape: 50 256 13 13 (2163200)
I0224 22:43:04.511371 56606 net.cpp:165] Memory required for data: 267026400
I0224 22:43:04.511374 56606 layer_factory.hpp:77] Creating layer conv3
I0224 22:43:04.511382 56606 net.cpp:106] Creating Layer conv3
I0224 22:43:04.511384 56606 net.cpp:454] conv3 <- norm2
I0224 22:43:04.511389 56606 net.cpp:411] conv3 -> conv3
I0224 22:43:04.521791 56606 net.cpp:150] Setting up conv3
I0224 22:43:04.521806 56606 net.cpp:157] Top shape: 50 384 13 13 (3244800)
I0224 22:43:04.521808 56606 net.cpp:165] Memory required for data: 280005600
I0224 22:43:04.521816 56606 layer_factory.hpp:77] Creating layer relu3
I0224 22:43:04.521822 56606 net.cpp:106] Creating Layer relu3
I0224 22:43:04.521826 56606 net.cpp:454] relu3 <- conv3
I0224 22:43:04.521829 56606 net.cpp:397] relu3 -> conv3 (in-place)
I0224 22:43:04.521971 56606 net.cpp:150] Setting up relu3
I0224 22:43:04.521977 56606 net.cpp:157] Top shape: 50 384 13 13 (3244800)
I0224 22:43:04.521980 56606 net.cpp:165] Memory required for data: 292984800
I0224 22:43:04.521982 56606 layer_factory.hpp:77] Creating layer conv4
I0224 22:43:04.521991 56606 net.cpp:106] Creating Layer conv4
I0224 22:43:04.521993 56606 net.cpp:454] conv4 <- conv3
I0224 22:43:04.521998 56606 net.cpp:411] conv4 -> conv4
I0224 22:43:04.530498 56606 net.cpp:150] Setting up conv4
I0224 22:43:04.530508 56606 net.cpp:157] Top shape: 50 384 13 13 (3244800)
I0224 22:43:04.530510 56606 net.cpp:165] Memory required for data: 305964000
I0224 22:43:04.530516 56606 layer_factory.hpp:77] Creating layer relu4
I0224 22:43:04.530521 56606 net.cpp:106] Creating Layer relu4
I0224 22:43:04.530524 56606 net.cpp:454] relu4 <- conv4
I0224 22:43:04.530529 56606 net.cpp:397] relu4 -> conv4 (in-place)
I0224 22:43:04.530670 56606 net.cpp:150] Setting up relu4
I0224 22:43:04.530676 56606 net.cpp:157] Top shape: 50 384 13 13 (3244800)
I0224 22:43:04.530678 56606 net.cpp:165] Memory required for data: 318943200
I0224 22:43:04.530681 56606 layer_factory.hpp:77] Creating layer conv5
I0224 22:43:04.530689 56606 net.cpp:106] Creating Layer conv5
I0224 22:43:04.530692 56606 net.cpp:454] conv5 <- conv4
I0224 22:43:04.530697 56606 net.cpp:411] conv5 -> conv5
I0224 22:43:04.536952 56606 net.cpp:150] Setting up conv5
I0224 22:43:04.536962 56606 net.cpp:157] Top shape: 50 256 13 13 (2163200)
I0224 22:43:04.536964 56606 net.cpp:165] Memory required for data: 327596000
I0224 22:43:04.536973 56606 layer_factory.hpp:77] Creating layer relu5
I0224 22:43:04.536978 56606 net.cpp:106] Creating Layer relu5
I0224 22:43:04.536981 56606 net.cpp:454] relu5 <- conv5
I0224 22:43:04.536986 56606 net.cpp:397] relu5 -> conv5 (in-place)
I0224 22:43:04.537216 56606 net.cpp:150] Setting up relu5
I0224 22:43:04.537225 56606 net.cpp:157] Top shape: 50 256 13 13 (2163200)
I0224 22:43:04.537227 56606 net.cpp:165] Memory required for data: 336248800
I0224 22:43:04.537230 56606 layer_factory.hpp:77] Creating layer pool5
I0224 22:43:04.537235 56606 net.cpp:106] Creating Layer pool5
I0224 22:43:04.537238 56606 net.cpp:454] pool5 <- conv5
I0224 22:43:04.537243 56606 net.cpp:411] pool5 -> pool5
I0224 22:43:04.537278 56606 net.cpp:150] Setting up pool5
I0224 22:43:04.537283 56606 net.cpp:157] Top shape: 50 256 6 6 (460800)
I0224 22:43:04.537286 56606 net.cpp:165] Memory required for data: 338092000
I0224 22:43:04.537287 56606 layer_factory.hpp:77] Creating layer fc6
I0224 22:43:04.537298 56606 net.cpp:106] Creating Layer fc6
I0224 22:43:04.537302 56606 net.cpp:454] fc6 <- pool5
I0224 22:43:04.537307 56606 net.cpp:411] fc6 -> fc6
I0224 22:43:04.934128 56606 net.cpp:150] Setting up fc6
I0224 22:43:04.934156 56606 net.cpp:157] Top shape: 50 4096 (204800)
I0224 22:43:04.934159 56606 net.cpp:165] Memory required for data: 338911200
I0224 22:43:04.934168 56606 layer_factory.hpp:77] Creating layer relu6
I0224 22:43:04.934180 56606 net.cpp:106] Creating Layer relu6
I0224 22:43:04.934183 56606 net.cpp:454] relu6 <- fc6
I0224 22:43:04.934190 56606 net.cpp:397] relu6 -> fc6 (in-place)
I0224 22:43:04.934377 56606 net.cpp:150] Setting up relu6
I0224 22:43:04.934383 56606 net.cpp:157] Top shape: 50 4096 (204800)
I0224 22:43:04.934386 56606 net.cpp:165] Memory required for data: 339730400
I0224 22:43:04.934388 56606 layer_factory.hpp:77] Creating layer drop6
I0224 22:43:04.934396 56606 net.cpp:106] Creating Layer drop6
I0224 22:43:04.934397 56606 net.cpp:454] drop6 <- fc6
I0224 22:43:04.934401 56606 net.cpp:397] drop6 -> fc6 (in-place)
I0224 22:43:04.934427 56606 net.cpp:150] Setting up drop6
I0224 22:43:04.934430 56606 net.cpp:157] Top shape: 50 4096 (204800)
I0224 22:43:04.934432 56606 net.cpp:165] Memory required for data: 340549600
I0224 22:43:04.934434 56606 layer_factory.hpp:77] Creating layer fc7
I0224 22:43:04.934442 56606 net.cpp:106] Creating Layer fc7
I0224 22:43:04.934443 56606 net.cpp:454] fc7 <- fc6
I0224 22:43:04.934448 56606 net.cpp:411] fc7 -> fc7
I0224 22:43:05.111313 56606 net.cpp:150] Setting up fc7
I0224 22:43:05.111341 56606 net.cpp:157] Top shape: 50 4096 (204800)
I0224 22:43:05.111345 56606 net.cpp:165] Memory required for data: 341368800
I0224 22:43:05.111353 56606 layer_factory.hpp:77] Creating layer relu7
I0224 22:43:05.111363 56606 net.cpp:106] Creating Layer relu7
I0224 22:43:05.111368 56606 net.cpp:454] relu7 <- fc7
I0224 22:43:05.111373 56606 net.cpp:397] relu7 -> fc7 (in-place)
I0224 22:43:05.111729 56606 net.cpp:150] Setting up relu7
I0224 22:43:05.111738 56606 net.cpp:157] Top shape: 50 4096 (204800)
I0224 22:43:05.111742 56606 net.cpp:165] Memory required for data: 342188000
I0224 22:43:05.111743 56606 layer_factory.hpp:77] Creating layer drop7
I0224 22:43:05.111752 56606 net.cpp:106] Creating Layer drop7
I0224 22:43:05.111754 56606 net.cpp:454] drop7 <- fc7
I0224 22:43:05.111758 56606 net.cpp:397] drop7 -> fc7 (in-place)
I0224 22:43:05.111784 56606 net.cpp:150] Setting up drop7
I0224 22:43:05.111794 56606 net.cpp:157] Top shape: 50 4096 (204800)
I0224 22:43:05.111800 56606 net.cpp:165] Memory required for data: 343007200
I0224 22:43:05.111804 56606 layer_factory.hpp:77] Creating layer fc8_flickr
I0224 22:43:05.111810 56606 net.cpp:106] Creating Layer fc8_flickr
I0224 22:43:05.111814 56606 net.cpp:454] fc8_flickr <- fc7
I0224 22:43:05.111819 56606 net.cpp:411] fc8_flickr -> fc8_flickr
I0224 22:43:05.113514 56606 net.cpp:150] Setting up fc8_flickr
I0224 22:43:05.113523 56606 net.cpp:157] Top shape: 50 30 (1500)
I0224 22:43:05.113526 56606 net.cpp:165] Memory required for data: 343013200
I0224 22:43:05.113531 56606 layer_factory.hpp:77] Creating layer loss
I0224 22:43:05.113541 56606 net.cpp:106] Creating Layer loss
I0224 22:43:05.113544 56606 net.cpp:454] loss <- fc8_flickr
I0224 22:43:05.113548 56606 net.cpp:454] loss <- label
I0224 22:43:05.113553 56606 net.cpp:411] loss -> loss
I0224 22:43:05.113560 56606 layer_factory.hpp:77] Creating layer loss
…
I0224 22:43:05.114552 56606 net.cpp:322] The NetState phase (1) differed from the phase (0) specified by a rule in layer data
I0224 22:43:05.114709 56606 net.cpp:49] Initializing net from parameters: 
name: "FlickrStyleCaffeNet"
state {
  phase: TEST
}
layer {
  name: "data"
  type: "ImageData"
  top: "data"
  top: "label"
  include {
    phase: TEST
  }
  transform_param {
    mirror: false
    crop_size: 227
    mean_file: "/scratch/16824/models/imagenet_mean.binaryproto"
  }
  image_data_param {
    source: "/scratch/16824/data/testlist_class.txt"
    batch_size: 50
    new_height: 256
    new_width: 256
    root_folder: "/scratch/16824/data/crop_imgs/"
  }
}
layer {
  name: "conv1"
  type: "Convolution"
  bottom: "data"
  top: "conv1"
  param {
    lr_mult: 1
    decay_mult: 1
  }
  param {
    lr_mult: 2
    decay_mult: 0
  }
  convolution_param {
    num_output: 96
    kernel_size: 11
    stride: 4
    weight_filler {
      type: "gaussian"
      std: 0.01
    }
    bias_filler {
      type: "constant"
      value: 0
    }
  }
}
layer {
  name: "relu1"
  type: "ReLU"
  bottom: "conv1"
  top: "conv1"
}
layer {
  name: "pool1"
  type: "Pooling"
  bottom: "conv1"
  top: "pool1"
  pooling_param {
    pool: MAX
    kernel_size: 3
    stride: 2
  }
}
layer {
  name: "norm1"
  type: "LRN"
  bottom: "pool1"
  top: "norm1"
  lrn_param {
    local_size: 5
    alpha: 0.0001
    beta: 0.75
  }
}
layer {
  name: "conv2"
  type: "Convolution"
  bottom: "norm1"
  top: "conv2"
  param {
    lr_mult: 1
    decay_mult: 1
  }
  param {
    lr_mult: 2
    decay_mult: 0
  }
  convolution_param {
    num_output: 256
    pad: 2
    kernel_size: 5
    group: 2
    weight_filler {
      type: "gaussian"
      std: 0.01
    }
    bias_filler {
      type: "constant"
      value: 1
    }
  }
}
layer {
  name: "relu2"
  type: "ReLU"
  bottom: "conv2"
  top: "conv2"
}
layer {
  name: "pool2"
  type: "Pooling"
  bottom: "conv2"
  top: "pool2"
  pooling_param {
    pool: MAX
    kernel_size: 3
    stride: 2
  }
}
layer {
  name: "norm2"
  type: "LRN"
  bottom: "pool2"
  top: "norm2"
  lrn_param {
    local_size: 5
    alpha: 0.0001
    beta: 0.75
  }
}
layer {
  name: "conv3"
  type: "Convolution"
  bottom: "norm2"
  top: "conv3"
  param {
    lr_mult: 1
    decay_mult: 1
  }
  param {
    lr_mult: 2
    decay_mult: 0
  }
  convolution_param {
    num_output: 384
    pad: 1
    kernel_size: 3
    weight_filler {
      type: "gaussian"
      std: 0.01
    }
    bias_filler {
      type: "constant"
      value: 0
    }
  }
}
layer {
  name: "relu3"
  type: "ReLU"
  bottom: "conv3"
  top: "conv3"
}
layer {
  name: "conv4"
  type: "Convolution"
  bottom: "conv3"
  top: "conv4"
  param {
    lr_mult: 1
    decay_mult: 1
  }
  param {
    lr_mult: 2
    decay_mult: 0
  }
  convolution_param {
    num_output: 384
    pad: 1
    kernel_size: 3
    group: 2
    weight_filler {
      type: "gaussian"
      std: 0.01
    }
    bias_filler {
      type: "constant"
      value: 1
    }
  }
}
layer {
  name: "relu4"
  type: "ReLU"
  bottom: "conv4"
  top: "conv4"
}
layer {
  name: "conv5"
  type: "Convolution"
  bottom: "conv4"
  top: "conv5"
  param {
    lr_mult: 1
    decay_mult: 1
  }
  param {
    lr_mult: 2
    decay_mult: 0
  }
  convolution_param {
    num_output: 256
    pad: 1
    kernel_size: 3
    group: 2
    weight_filler {
      type: "gaussian"
      std: 0.01
    }
    bias_filler {
      type: "constant"
      value: 1
    }
  }
}
layer {
  name: "relu5"
  type: "ReLU"
  bottom: "conv5"
  top: "conv5"
}
layer {
  name: "pool5"
  type: "Pooling"
  bottom: "conv5"
  top: "pool5"
  pooling_param {
    pool: MAX
    kernel_size: 3
    stride: 2
  }
}
layer {
  name: "fc6"
  type: "InnerProduct"
  bottom: "pool5"
  top: "fc6"
  param {
    lr_mult: 1
    decay_mult: 1
  }
  param {
    lr_mult: 2
    decay_mult: 0
  }
  inner_product_param {
    num_output: 4096
    weight_filler {
      type: "gaussian"
      std: 0.005
    }
    bias_filler {
      type: "constant"
      value: 1
    }
  }
}
layer {
  name: "relu6"
  type: "ReLU"
  bottom: "fc6"
  top: "fc6"
}
layer {
  name: "drop6"
  type: "Dropout"
  bottom: "fc6"
  top: "fc6"
  dropout_param {
    dropout_ratio: 0.5
  }
}
layer {
  name: "fc7"
  type: "InnerProduct"
  bottom: "fc6"
  top: "fc7"
  param {
    lr_mult: 1
    decay_mult: 1
  }
  param {
    lr_mult: 2
    decay_mult: 0
  }
  inner_product_param {
    num_output: 4096
    weight_filler {
      type: "gaussian"
      std: 0.005
    }
    bias_filler {
      type: "constant"
      value: 1
    }
  }
}
layer {
  name: "relu7"
  type: "ReLU"
  bottom: "fc7"
  top: "fc7"
}
layer {
  name: "drop7"
  type: "Dropout"
  bottom: "fc7"
  top: "fc7"
  dropout_param {
    dropout_ratio: 0.5
  }
}
layer {
  name: "fc8_flickr"
  type: "InnerProduct"
  bottom: "fc7"
  top: "fc8_flickr"
  param {
    lr_mult: 10
    decay_mult: 1
  }
  param {
    lr_mult: 20
    decay_mult: 0
  }
  inner_product_param {
    num_output: 30
    weight_filler {
      type: "gaussian"
      std: 0.01
    }
    bias_filler {
      type: "constant"
      value: 0
    }
  }
}
layer {
  name: "accuracy"
  type: "Accuracy"
  bottom: "fc8_flickr"
  bottom: "label"
  top: "accuracy"
  include {
    phase: TEST
  }
}
layer {
  name: "loss"
  type: "SoftmaxWithLoss"
  bottom: "fc8_flickr"
  bottom: "label"
  top: "loss"
}
I0224 22:43:05.114806 56606 layer_factory.hpp:77] Creating layer data
I0224 22:43:05.114820 56606 net.cpp:106] Creating Layer data
I0224 22:43:05.114822 56606 net.cpp:411] data -> data
I0224 22:43:05.114830 56606 net.cpp:411] data -> label
I0224 22:43:05.114836 56606 data_transformer.cpp:25] Loading mean file from: /scratch/16824/models/imagenet_mean.binaryproto
I0224 22:43:05.116421 56606 image_data_layer.cpp:38] Opening file /scratch/16824/data/testlist_class.txt
I0224 22:43:05.119166 56606 image_data_layer.cpp:53] A total of 9183 images.
I0224 22:43:05.120946 56606 image_data_layer.cpp:80] output data size: 50,3,227,227
I0224 22:43:05.179503 56606 net.cpp:150] Setting up data
I0224 22:43:05.179540 56606 net.cpp:157] Top shape: 50 3 227 227 (7729350)
I0224 22:43:05.179544 56606 net.cpp:157] Top shape: 50 (50)
I0224 22:43:05.179548 56606 net.cpp:165] Memory required for data: 30917600
I0224 22:43:05.179554 56606 layer_factory.hpp:77] Creating layer label_data_1_split
I0224 22:43:05.179570 56606 net.cpp:106] Creating Layer label_data_1_split
I0224 22:43:05.179574 56606 net.cpp:454] label_data_1_split <- label
I0224 22:43:05.179580 56606 net.cpp:411] label_data_1_split -> label_data_1_split_0
I0224 22:43:05.179590 56606 net.cpp:411] label_data_1_split -> label_data_1_split_1
I0224 22:43:05.179783 56606 net.cpp:150] Setting up label_data_1_split
I0224 22:43:05.179795 56606 net.cpp:157] Top shape: 50 (50)
I0224 22:43:05.179800 56606 net.cpp:157] Top shape: 50 (50)
I0224 22:43:05.179801 56606 net.cpp:165] Memory required for data: 30918000
I0224 22:43:05.179805 56606 layer_factory.hpp:77] Creating layer conv1
I0224 22:43:05.179817 56606 net.cpp:106] Creating Layer conv1
I0224 22:43:05.179821 56606 net.cpp:454] conv1 <- data
I0224 22:43:05.179826 56606 net.cpp:411] conv1 -> conv1
I0224 22:43:05.181217 56606 net.cpp:150] Setting up conv1
I0224 22:43:05.181229 56606 net.cpp:157] Top shape: 50 96 55 55 (14520000)
I0224 22:43:05.181232 56606 net.cpp:165] Memory required for data: 88998000
I0224 22:43:05.181242 56606 layer_factory.hpp:77] Creating layer relu1
I0224 22:43:05.181249 56606 net.cpp:106] Creating Layer relu1
I0224 22:43:05.181252 56606 net.cpp:454] relu1 <- conv1
I0224 22:43:05.181257 56606 net.cpp:397] relu1 -> conv1 (in-place)
I0224 22:43:05.181495 56606 net.cpp:150] Setting up relu1
I0224 22:43:05.181504 56606 net.cpp:157] Top shape: 50 96 55 55 (14520000)
I0224 22:43:05.181506 56606 net.cpp:165] Memory required for data: 147078000
I0224 22:43:05.181509 56606 layer_factory.hpp:77] Creating layer pool1
I0224 22:43:05.181517 56606 net.cpp:106] Creating Layer pool1
I0224 22:43:05.181520 56606 net.cpp:454] pool1 <- conv1
I0224 22:43:05.181525 56606 net.cpp:411] pool1 -> pool1
I0224 22:43:05.181563 56606 net.cpp:150] Setting up pool1
I0224 22:43:05.181567 56606 net.cpp:157] Top shape: 50 96 27 27 (3499200)
I0224 22:43:05.181571 56606 net.cpp:165] Memory required for data: 161074800
I0224 22:43:05.181572 56606 layer_factory.hpp:77] Creating layer norm1
I0224 22:43:05.181579 56606 net.cpp:106] Creating Layer norm1
I0224 22:43:05.181581 56606 net.cpp:454] norm1 <- pool1
I0224 22:43:05.181586 56606 net.cpp:411] norm1 -> norm1
I0224 22:43:05.182517 56606 net.cpp:150] Setting up norm1
I0224 22:43:05.182523 56606 net.cpp:157] Top shape: 50 96 27 27 (3499200)
I0224 22:43:05.182526 56606 net.cpp:165] Memory required for data: 175071600
I0224 22:43:05.182529 56606 layer_factory.hpp:77] Creating layer conv2
I0224 22:43:05.182538 56606 net.cpp:106] Creating Layer conv2
I0224 22:43:05.182540 56606 net.cpp:454] conv2 <- norm1
I0224 22:43:05.182550 56606 net.cpp:411] conv2 -> conv2
I0224 22:43:05.200708 56606 net.cpp:150] Setting up conv2
I0224 22:43:05.200721 56606 net.cpp:157] Top shape: 50 256 27 27 (9331200)
I0224 22:43:05.200723 56606 net.cpp:165] Memory required for data: 212396400
I0224 22:43:05.200732 56606 layer_factory.hpp:77] Creating layer relu2
I0224 22:43:05.200738 56606 net.cpp:106] Creating Layer relu2
I0224 22:43:05.200742 56606 net.cpp:454] relu2 <- conv2
I0224 22:43:05.200747 56606 net.cpp:397] relu2 -> conv2 (in-place)
I0224 22:43:05.203403 56606 net.cpp:150] Setting up relu2
I0224 22:43:05.203410 56606 net.cpp:157] Top shape: 50 256 27 27 (9331200)
I0224 22:43:05.203413 56606 net.cpp:165] Memory required for data: 249721200
I0224 22:43:05.203415 56606 layer_factory.hpp:77] Creating layer pool2
I0224 22:43:05.203423 56606 net.cpp:106] Creating Layer pool2
I0224 22:43:05.203424 56606 net.cpp:454] pool2 <- conv2
I0224 22:43:05.203430 56606 net.cpp:411] pool2 -> pool2
I0224 22:43:05.203467 56606 net.cpp:150] Setting up pool2
I0224 22:43:05.203471 56606 net.cpp:157] Top shape: 50 256 13 13 (2163200)
I0224 22:43:05.203474 56606 net.cpp:165] Memory required for data: 258374000
I0224 22:43:05.203476 56606 layer_factory.hpp:77] Creating layer norm2
I0224 22:43:05.203481 56606 net.cpp:106] Creating Layer norm2
I0224 22:43:05.203485 56606 net.cpp:454] norm2 <- pool2
I0224 22:43:05.203488 56606 net.cpp:411] norm2 -> norm2
I0224 22:43:05.205106 56606 net.cpp:150] Setting up norm2
I0224 22:43:05.205116 56606 net.cpp:157] Top shape: 50 256 13 13 (2163200)
I0224 22:43:05.205118 56606 net.cpp:165] Memory required for data: 267026800
I0224 22:43:05.205121 56606 layer_factory.hpp:77] Creating layer conv3
I0224 22:43:05.205129 56606 net.cpp:106] Creating Layer conv3
I0224 22:43:05.205132 56606 net.cpp:454] conv3 <- norm2
I0224 22:43:05.205138 56606 net.cpp:411] conv3 -> conv3
I0224 22:43:05.216449 56606 net.cpp:150] Setting up conv3
I0224 22:43:05.216460 56606 net.cpp:157] Top shape: 50 384 13 13 (3244800)
I0224 22:43:05.216462 56606 net.cpp:165] Memory required for data: 280006000
I0224 22:43:05.216470 56606 layer_factory.hpp:77] Creating layer relu3
I0224 22:43:05.216476 56606 net.cpp:106] Creating Layer relu3
I0224 22:43:05.216480 56606 net.cpp:454] relu3 <- conv3
I0224 22:43:05.216485 56606 net.cpp:397] relu3 -> conv3 (in-place)
I0224 22:43:05.217975 56606 net.cpp:150] Setting up relu3
I0224 22:43:05.217983 56606 net.cpp:157] Top shape: 50 384 13 13 (3244800)
I0224 22:43:05.217985 56606 net.cpp:165] Memory required for data: 292985200
I0224 22:43:05.217988 56606 layer_factory.hpp:77] Creating layer conv4
I0224 22:43:05.217996 56606 net.cpp:106] Creating Layer conv4
I0224 22:43:05.217999 56606 net.cpp:454] conv4 <- conv3
I0224 22:43:05.218005 56606 net.cpp:411] conv4 -> conv4
I0224 22:43:05.226688 56606 net.cpp:150] Setting up conv4
I0224 22:43:05.226699 56606 net.cpp:157] Top shape: 50 384 13 13 (3244800)
I0224 22:43:05.226702 56606 net.cpp:165] Memory required for data: 305964400
I0224 22:43:05.226709 56606 layer_factory.hpp:77] Creating layer relu4
I0224 22:43:05.226716 56606 net.cpp:106] Creating Layer relu4
I0224 22:43:05.226718 56606 net.cpp:454] relu4 <- conv4
I0224 22:43:05.226722 56606 net.cpp:397] relu4 -> conv4 (in-place)
I0224 22:43:05.226881 56606 net.cpp:150] Setting up relu4
I0224 22:43:05.226887 56606 net.cpp:157] Top shape: 50 384 13 13 (3244800)
I0224 22:43:05.226889 56606 net.cpp:165] Memory required for data: 318943600
I0224 22:43:05.226892 56606 layer_factory.hpp:77] Creating layer conv5
I0224 22:43:05.226900 56606 net.cpp:106] Creating Layer conv5
I0224 22:43:05.226903 56606 net.cpp:454] conv5 <- conv4
I0224 22:43:05.226912 56606 net.cpp:411] conv5 -> conv5
I0224 22:43:05.233093 56606 net.cpp:150] Setting up conv5
I0224 22:43:05.233103 56606 net.cpp:157] Top shape: 50 256 13 13 (2163200)
I0224 22:43:05.233106 56606 net.cpp:165] Memory required for data: 327596400
I0224 22:43:05.233115 56606 layer_factory.hpp:77] Creating layer relu5
I0224 22:43:05.233121 56606 net.cpp:106] Creating Layer relu5
I0224 22:43:05.233124 56606 net.cpp:454] relu5 <- conv5
I0224 22:43:05.233131 56606 net.cpp:397] relu5 -> conv5 (in-place)
I0224 22:43:05.233273 56606 net.cpp:150] Setting up relu5
I0224 22:43:05.233280 56606 net.cpp:157] Top shape: 50 256 13 13 (2163200)
I0224 22:43:05.233283 56606 net.cpp:165] Memory required for data: 336249200
I0224 22:43:05.233285 56606 layer_factory.hpp:77] Creating layer pool5
I0224 22:43:05.233292 56606 net.cpp:106] Creating Layer pool5
I0224 22:43:05.233295 56606 net.cpp:454] pool5 <- conv5
I0224 22:43:05.233299 56606 net.cpp:411] pool5 -> pool5
I0224 22:43:05.233337 56606 net.cpp:150] Setting up pool5
I0224 22:43:05.233342 56606 net.cpp:157] Top shape: 50 256 6 6 (460800)
I0224 22:43:05.233345 56606 net.cpp:165] Memory required for data: 338092400
I0224 22:43:05.233346 56606 layer_factory.hpp:77] Creating layer fc6
I0224 22:43:05.233353 56606 net.cpp:106] Creating Layer fc6
I0224 22:43:05.233355 56606 net.cpp:454] fc6 <- pool5
I0224 22:43:05.233361 56606 net.cpp:411] fc6 -> fc6
I0224 22:43:05.629184 56606 net.cpp:150] Setting up fc6
I0224 22:43:05.629214 56606 net.cpp:157] Top shape: 50 4096 (204800)
I0224 22:43:05.629216 56606 net.cpp:165] Memory required for data: 338911600
I0224 22:43:05.629226 56606 layer_factory.hpp:77] Creating layer relu6
I0224 22:43:05.629237 56606 net.cpp:106] Creating Layer relu6
I0224 22:43:05.629240 56606 net.cpp:454] relu6 <- fc6
I0224 22:43:05.629247 56606 net.cpp:397] relu6 -> fc6 (in-place)
I0224 22:43:05.629645 56606 net.cpp:150] Setting up relu6
I0224 22:43:05.629654 56606 net.cpp:157] Top shape: 50 4096 (204800)
I0224 22:43:05.629657 56606 net.cpp:165] Memory required for data: 339730800
I0224 22:43:05.629659 56606 layer_factory.hpp:77] Creating layer drop6
I0224 22:43:05.629667 56606 net.cpp:106] Creating Layer drop6
I0224 22:43:05.629669 56606 net.cpp:454] drop6 <- fc6
I0224 22:43:05.629674 56606 net.cpp:397] drop6 -> fc6 (in-place)
I0224 22:43:05.629703 56606 net.cpp:150] Setting up drop6
I0224 22:43:05.629708 56606 net.cpp:157] Top shape: 50 4096 (204800)
I0224 22:43:05.629709 56606 net.cpp:165] Memory required for data: 340550000
I0224 22:43:05.629712 56606 layer_factory.hpp:77] Creating layer fc7
I0224 22:43:05.629719 56606 net.cpp:106] Creating Layer fc7
I0224 22:43:05.629721 56606 net.cpp:454] fc7 <- fc6
I0224 22:43:05.629726 56606 net.cpp:411] fc7 -> fc7
I0224 22:43:05.806066 56606 net.cpp:150] Setting up fc7
I0224 22:43:05.806097 56606 net.cpp:157] Top shape: 50 4096 (204800)
I0224 22:43:05.806100 56606 net.cpp:165] Memory required for data: 341369200
I0224 22:43:05.806109 56606 layer_factory.hpp:77] Creating layer relu7
I0224 22:43:05.806120 56606 net.cpp:106] Creating Layer relu7
I0224 22:43:05.806124 56606 net.cpp:454] relu7 <- fc7
I0224 22:43:05.806130 56606 net.cpp:397] relu7 -> fc7 (in-place)
I0224 22:43:05.806336 56606 net.cpp:150] Setting up relu7
I0224 22:43:05.806342 56606 net.cpp:157] Top shape: 50 4096 (204800)
I0224 22:43:05.806344 56606 net.cpp:165] Memory required for data: 342188400
I0224 22:43:05.806347 56606 layer_factory.hpp:77] Creating layer drop7
I0224 22:43:05.806354 56606 net.cpp:106] Creating Layer drop7
I0224 22:43:05.806357 56606 net.cpp:454] drop7 <- fc7
I0224 22:43:05.806361 56606 net.cpp:397] drop7 -> fc7 (in-place)
I0224 22:43:05.806388 56606 net.cpp:150] Setting up drop7
I0224 22:43:05.806392 56606 net.cpp:157] Top shape: 50 4096 (204800)
I0224 22:43:05.806394 56606 net.cpp:165] Memory required for data: 343007600
I0224 22:43:05.806397 56606 layer_factory.hpp:77] Creating layer fc8_flickr
I0224 22:43:05.806404 56606 net.cpp:106] Creating Layer fc8_flickr
I0224 22:43:05.806406 56606 net.cpp:454] fc8_flickr <- fc7
I0224 22:43:05.806411 56606 net.cpp:411] fc8_flickr -> fc8_flickr
I0224 22:43:05.807641 56606 net.cpp:150] Setting up fc8_flickr
I0224 22:43:05.807647 56606 net.cpp:157] Top shape: 50 30 (1500)
I0224 22:43:05.807651 56606 net.cpp:165] Memory required for data: 343013600
I0224 22:43:05.807654 56606 layer_factory.hpp:77] Creating layer fc8_flickr_fc8_flickr_0_split
I0224 22:43:05.807659 56606 net.cpp:106] Creating Layer fc8_flickr_fc8_flickr_0_split
I0224 22:43:05.807669 56606 net.cpp:454] fc8_flickr_fc8_flickr_0_split <- fc8_flickr
I0224 22:43:05.807673 56606 net.cpp:411] fc8_flickr_fc8_flickr_0_split -> fc8_flickr_fc8_flickr_0_split_0
I0224 22:43:05.807678 56606 net.cpp:411] fc8_flickr_fc8_flickr_0_split -> fc8_flickr_fc8_flickr_0_split_1
I0224 22:43:05.807709 56606 net.cpp:150] Setting up fc8_flickr_fc8_flickr_0_split
I0224 22:43:05.807713 56606 net.cpp:157] Top shape: 50 30 (1500)
I0224 22:43:05.807716 56606 net.cpp:157] Top shape: 50 30 (1500)
I0224 22:43:05.807718 56606 net.cpp:165] Memory required for data: 343025600
I0224 22:43:05.807720 56606 layer_factory.hpp:77] Creating layer accuracy
I0224 22:43:05.807732 56606 net.cpp:106] Creating Layer accuracy
I0224 22:43:05.807734 56606 net.cpp:454] accuracy <- fc8_flickr_fc8_flickr_0_split_0
I0224 22:43:05.807739 56606 net.cpp:454] accuracy <- label_data_1_split_0
I0224 22:43:05.807742 56606 net.cpp:411] accuracy -> accuracy
…
