…
I0227 16:57:19.810791 113184 net.cpp:322] The NetState phase (0) differed from the phase (1) specified by a rule in layer data
I0227 16:57:19.810940 113184 net.cpp:49] Initializing net from parameters: 
name: "FlickrStyleCaffeNet"
state {
  phase: TRAIN
}
layer {
  name: "data"
  type: "ImageData"
  top: "data"
  top: "label"
  include {
    phase: TRAIN
  }
  transform_param {
    mirror: false
    crop_size: 227
    mean_value: 104
  }
  image_data_param {
    source: "/scratch/16824/data/trainlist_bbox2.txt"
    batch_size: 50
    shuffle: true
    new_height: 227
    new_width: 227
    root_folder: "/scratch/16824/data/crop_imgs/"
    label_num: 4
  }
}
layer {
  name: "conv1"
  type: "Convolution"
  bottom: "data"
  top: "conv1"
  param {
    lr_mult: 1
    decay_mult: 1
  }
  param {
    lr_mult: 2
    decay_mult: 0
  }
  convolution_param {
    num_output: 96
    kernel_size: 11
    stride: 4
    weight_filler {
      type: "gaussian"
      std: 0.01
    }
    bias_filler {
      type: "constant"
      value: 0
    }
  }
}
layer {
  name: "relu1"
  type: "ReLU"
  bottom: "conv1"
  top: "conv1"
}
layer {
  name: "pool1"
  type: "Pooling"
  bottom: "conv1"
  top: "pool1"
  pooling_param {
    pool: MAX
    kernel_size: 3
    stride: 2
  }
}
layer {
  name: "norm1"
  type: "LRN"
  bottom: "pool1"
  top: "norm1"
  lrn_param {
    local_size: 5
    alpha: 0.0001
    beta: 0.75
  }
}
layer {
  name: "conv2"
  type: "Convolution"
  bottom: "norm1"
  top: "conv2"
  param {
    lr_mult: 1
    decay_mult: 1
  }
  param {
    lr_mult: 2
    decay_mult: 0
  }
  convolution_param {
    num_output: 256
    pad: 2
    kernel_size: 5
    group: 2
    weight_filler {
      type: "gaussian"
      std: 0.01
    }
    bias_filler {
      type: "constant"
      value: 1
    }
  }
}
layer {
  name: "relu2"
  type: "ReLU"
  bottom: "conv2"
  top: "conv2"
}
layer {
  name: "pool2"
  type: "Pooling"
  bottom: "conv2"
  top: "pool2"
  pooling_param {
    pool: MAX
    kernel_size: 3
    stride: 2
  }
}
layer {
  name: "norm2"
  type: "LRN"
  bottom: "pool2"
  top: "norm2"
  lrn_param {
    local_size: 5
    alpha: 0.0001
    beta: 0.75
  }
}
layer {
  name: "conv3"
  type: "Convolution"
  bottom: "norm2"
  top: "conv3"
  param {
    lr_mult: 1
    decay_mult: 1
  }
  param {
    lr_mult: 2
    decay_mult: 0
  }
  convolution_param {
    num_output: 384
    pad: 1
    kernel_size: 3
    weight_filler {
      type: "gaussian"
      std: 0.01
    }
    bias_filler {
      type: "constant"
      value: 0
    }
  }
}
layer {
  name: "relu3"
  type: "ReLU"
  bottom: "conv3"
  top: "conv3"
}
layer {
  name: "conv4"
  type: "Convolution"
  bottom: "conv3"
  top: "conv4"
  param {
    lr_mult: 1
    decay_mult: 1
  }
  param {
    lr_mult: 2
    decay_mult: 0
  }
  convolution_param {
    num_output: 384
    pad: 1
    kernel_size: 3
    group: 2
    weight_filler {
      type: "gaussian"
      std: 0.01
    }
    bias_filler {
      type: "constant"
      value: 1
    }
  }
}
layer {
  name: "relu4"
  type: "ReLU"
  bottom: "conv4"
  top: "conv4"
}
layer {
  name: "conv5"
  type: "Convolution"
  bottom: "conv4"
  top: "conv5"
  param {
    lr_mult: 1
    decay_mult: 1
  }
  param {
    lr_mult: 2
    decay_mult: 0
  }
  convolution_param {
    num_output: 256
    pad: 1
    kernel_size: 3
    group: 2
    weight_filler {
      type: "gaussian"
      std: 0.01
    }
    bias_filler {
      type: "constant"
      value: 1
    }
  }
}
layer {
  name: "relu5"
  type: "ReLU"
  bottom: "conv5"
  top: "conv5"
}
layer {
  name: "pool5"
  type: "Pooling"
  bottom: "conv5"
  top: "pool5"
  pooling_param {
    pool: MAX
    kernel_size: 3
    stride: 2
  }
}
layer {
  name: "fc6"
  type: "InnerProduct"
  bottom: "pool5"
  top: "fc6"
  param {
    lr_mult: 1
    decay_mult: 1
  }
  param {
    lr_mult: 2
    decay_mult: 0
  }
  inner_product_param {
    num_output: 4096
    weight_filler {
      type: "gaussian"
      std: 0.005
    }
    bias_filler {
      type: "constant"
      value: 1
    }
  }
}
layer {
  name: "relu6"
  type: "ReLU"
  bottom: "fc6"
  top: "fc6"
}
layer {
  name: "drop6"
  type: "Dropout"
  bottom: "fc6"
  top: "fc6"
  dropout_param {
    dropout_ratio: 0.5
  }
}
layer {
  name: "fc7"
  type: "InnerProduct"
  bottom: "fc6"
  top: "fc7"
  param {
    lr_mult: 1
    decay_mult: 1
  }
  param {
    lr_mult: 2
    decay_mult: 0
  }
  inner_product_param {
    num_output: 4096
    weight_filler {
      type: "gaussian"
      std: 0.005
    }
    bias_filler {
      type: "constant"
      value: 1
    }
  }
}
layer {
  name: "relu7"
  type: "ReLU"
  bottom: "fc7"
  top: "fc7"
}
layer {
  name: "drop7"
  type: "Dropout"
  bottom: "fc7"
  top: "fc7"
  dropout_param {
    dropout_ratio: 0.5
  }
}
layer {
  name: "fc8_reg"
  type: "InnerProduct"
  bottom: "fc7"
  top: "fc8_reg"
  param {
    lr_mult: 10
    decay_mult: 1
  }
  param {
    lr_mult: 20
    decay_mult: 0
  }
  inner_product_param {
    num_output: 4
    weight_filler {
      type: "gaussian"
      std: 0.001
    }
    bias_filler {
      type: "constant"
      value: 0
    }
  }
}
layer {
  name: "loss"
  type: "EuclideanLoss"
  bottom: "label"
  bottom: "fc8_reg"
  top: "loss"
}
I0227 16:57:19.811017 113184 layer_factory.hpp:77] Creating layer data
I0227 16:57:19.811034 113184 net.cpp:106] Creating Layer data
I0227 16:57:19.811040 113184 net.cpp:411] data -> data
I0227 16:57:19.811053 113184 net.cpp:411] data -> label
I0227 16:57:19.811489 113184 image_data_layer.cpp:40] Opening file /scratch/16824/data/trainlist_bbox2.txt
I0227 16:57:19.900427 113184 image_data_layer.cpp:57] Shuffling data
I0227 16:57:19.905757 113184 image_data_layer.cpp:62] A total of 36752 images.
I0227 16:57:19.945329 113184 image_data_layer.cpp:89] output data size: 50,3,227,227
I0227 16:57:20.003414 113184 net.cpp:150] Setting up data
I0227 16:57:20.003445 113184 net.cpp:157] Top shape: 50 3 227 227 (7729350)
I0227 16:57:20.003449 113184 net.cpp:157] Top shape: 50 4 1 1 (200)
I0227 16:57:20.003453 113184 net.cpp:165] Memory required for data: 30918200
I0227 16:57:20.003459 113184 layer_factory.hpp:77] Creating layer conv1
I0227 16:57:20.003497 113184 net.cpp:106] Creating Layer conv1
I0227 16:57:20.003507 113184 net.cpp:454] conv1 <- data
I0227 16:57:20.003515 113184 net.cpp:411] conv1 -> conv1
I0227 16:57:20.191684 113184 net.cpp:150] Setting up conv1
I0227 16:57:20.191709 113184 net.cpp:157] Top shape: 50 96 55 55 (14520000)
I0227 16:57:20.191712 113184 net.cpp:165] Memory required for data: 88998200
I0227 16:57:20.191727 113184 layer_factory.hpp:77] Creating layer relu1
I0227 16:57:20.191740 113184 net.cpp:106] Creating Layer relu1
I0227 16:57:20.191743 113184 net.cpp:454] relu1 <- conv1
I0227 16:57:20.191748 113184 net.cpp:397] relu1 -> conv1 (in-place)
I0227 16:57:20.194597 113184 net.cpp:150] Setting up relu1
I0227 16:57:20.194607 113184 net.cpp:157] Top shape: 50 96 55 55 (14520000)
I0227 16:57:20.194609 113184 net.cpp:165] Memory required for data: 147078200
I0227 16:57:20.194612 113184 layer_factory.hpp:77] Creating layer pool1
I0227 16:57:20.194620 113184 net.cpp:106] Creating Layer pool1
I0227 16:57:20.194623 113184 net.cpp:454] pool1 <- conv1
I0227 16:57:20.194628 113184 net.cpp:411] pool1 -> pool1
I0227 16:57:20.194664 113184 net.cpp:150] Setting up pool1
I0227 16:57:20.194669 113184 net.cpp:157] Top shape: 50 96 27 27 (3499200)
I0227 16:57:20.194670 113184 net.cpp:165] Memory required for data: 161075000
I0227 16:57:20.194672 113184 layer_factory.hpp:77] Creating layer norm1
I0227 16:57:20.194684 113184 net.cpp:106] Creating Layer norm1
I0227 16:57:20.194687 113184 net.cpp:454] norm1 <- pool1
I0227 16:57:20.194690 113184 net.cpp:411] norm1 -> norm1
I0227 16:57:20.198254 113184 net.cpp:150] Setting up norm1
I0227 16:57:20.198262 113184 net.cpp:157] Top shape: 50 96 27 27 (3499200)
I0227 16:57:20.198266 113184 net.cpp:165] Memory required for data: 175071800
I0227 16:57:20.198267 113184 layer_factory.hpp:77] Creating layer conv2
I0227 16:57:20.198277 113184 net.cpp:106] Creating Layer conv2
I0227 16:57:20.198281 113184 net.cpp:454] conv2 <- norm1
I0227 16:57:20.198284 113184 net.cpp:411] conv2 -> conv2
I0227 16:57:20.205852 113184 net.cpp:150] Setting up conv2
I0227 16:57:20.205862 113184 net.cpp:157] Top shape: 50 256 27 27 (9331200)
I0227 16:57:20.205865 113184 net.cpp:165] Memory required for data: 212396600
I0227 16:57:20.205873 113184 layer_factory.hpp:77] Creating layer relu2
I0227 16:57:20.205878 113184 net.cpp:106] Creating Layer relu2
I0227 16:57:20.205880 113184 net.cpp:454] relu2 <- conv2
I0227 16:57:20.205888 113184 net.cpp:397] relu2 -> conv2 (in-place)
I0227 16:57:20.206039 113184 net.cpp:150] Setting up relu2
I0227 16:57:20.206048 113184 net.cpp:157] Top shape: 50 256 27 27 (9331200)
I0227 16:57:20.206050 113184 net.cpp:165] Memory required for data: 249721400
I0227 16:57:20.206053 113184 layer_factory.hpp:77] Creating layer pool2
I0227 16:57:20.206058 113184 net.cpp:106] Creating Layer pool2
I0227 16:57:20.206059 113184 net.cpp:454] pool2 <- conv2
I0227 16:57:20.206063 113184 net.cpp:411] pool2 -> pool2
I0227 16:57:20.206099 113184 net.cpp:150] Setting up pool2
I0227 16:57:20.206102 113184 net.cpp:157] Top shape: 50 256 13 13 (2163200)
I0227 16:57:20.206104 113184 net.cpp:165] Memory required for data: 258374200
I0227 16:57:20.206106 113184 layer_factory.hpp:77] Creating layer norm2
I0227 16:57:20.206115 113184 net.cpp:106] Creating Layer norm2
I0227 16:57:20.206117 113184 net.cpp:454] norm2 <- pool2
I0227 16:57:20.206123 113184 net.cpp:411] norm2 -> norm2
I0227 16:57:20.206374 113184 net.cpp:150] Setting up norm2
I0227 16:57:20.206382 113184 net.cpp:157] Top shape: 50 256 13 13 (2163200)
I0227 16:57:20.206384 113184 net.cpp:165] Memory required for data: 267027000
I0227 16:57:20.206387 113184 layer_factory.hpp:77] Creating layer conv3
I0227 16:57:20.206399 113184 net.cpp:106] Creating Layer conv3
I0227 16:57:20.206403 113184 net.cpp:454] conv3 <- norm2
I0227 16:57:20.206406 113184 net.cpp:411] conv3 -> conv3
I0227 16:57:20.217022 113184 net.cpp:150] Setting up conv3
I0227 16:57:20.217033 113184 net.cpp:157] Top shape: 50 384 13 13 (3244800)
I0227 16:57:20.217036 113184 net.cpp:165] Memory required for data: 280006200
I0227 16:57:20.217044 113184 layer_factory.hpp:77] Creating layer relu3
I0227 16:57:20.217049 113184 net.cpp:106] Creating Layer relu3
I0227 16:57:20.217052 113184 net.cpp:454] relu3 <- conv3
I0227 16:57:20.217058 113184 net.cpp:397] relu3 -> conv3 (in-place)
I0227 16:57:20.217207 113184 net.cpp:150] Setting up relu3
I0227 16:57:20.217213 113184 net.cpp:157] Top shape: 50 384 13 13 (3244800)
I0227 16:57:20.217216 113184 net.cpp:165] Memory required for data: 292985400
I0227 16:57:20.217218 113184 layer_factory.hpp:77] Creating layer conv4
I0227 16:57:20.217228 113184 net.cpp:106] Creating Layer conv4
I0227 16:57:20.217231 113184 net.cpp:454] conv4 <- conv3
I0227 16:57:20.217236 113184 net.cpp:411] conv4 -> conv4
I0227 16:57:20.225914 113184 net.cpp:150] Setting up conv4
I0227 16:57:20.225927 113184 net.cpp:157] Top shape: 50 384 13 13 (3244800)
I0227 16:57:20.225930 113184 net.cpp:165] Memory required for data: 305964600
I0227 16:57:20.225935 113184 layer_factory.hpp:77] Creating layer relu4
I0227 16:57:20.225940 113184 net.cpp:106] Creating Layer relu4
I0227 16:57:20.225944 113184 net.cpp:454] relu4 <- conv4
I0227 16:57:20.225947 113184 net.cpp:397] relu4 -> conv4 (in-place)
I0227 16:57:20.226099 113184 net.cpp:150] Setting up relu4
I0227 16:57:20.226104 113184 net.cpp:157] Top shape: 50 384 13 13 (3244800)
I0227 16:57:20.226107 113184 net.cpp:165] Memory required for data: 318943800
I0227 16:57:20.226112 113184 layer_factory.hpp:77] Creating layer conv5
I0227 16:57:20.226121 113184 net.cpp:106] Creating Layer conv5
I0227 16:57:20.226125 113184 net.cpp:454] conv5 <- conv4
I0227 16:57:20.226130 113184 net.cpp:411] conv5 -> conv5
I0227 16:57:20.232564 113184 net.cpp:150] Setting up conv5
I0227 16:57:20.232574 113184 net.cpp:157] Top shape: 50 256 13 13 (2163200)
I0227 16:57:20.232578 113184 net.cpp:165] Memory required for data: 327596600
I0227 16:57:20.232585 113184 layer_factory.hpp:77] Creating layer relu5
I0227 16:57:20.232592 113184 net.cpp:106] Creating Layer relu5
I0227 16:57:20.232594 113184 net.cpp:454] relu5 <- conv5
I0227 16:57:20.232599 113184 net.cpp:397] relu5 -> conv5 (in-place)
I0227 16:57:20.232841 113184 net.cpp:150] Setting up relu5
I0227 16:57:20.232853 113184 net.cpp:157] Top shape: 50 256 13 13 (2163200)
I0227 16:57:20.232856 113184 net.cpp:165] Memory required for data: 336249400
I0227 16:57:20.232858 113184 layer_factory.hpp:77] Creating layer pool5
I0227 16:57:20.232863 113184 net.cpp:106] Creating Layer pool5
I0227 16:57:20.232867 113184 net.cpp:454] pool5 <- conv5
I0227 16:57:20.232870 113184 net.cpp:411] pool5 -> pool5
I0227 16:57:20.232908 113184 net.cpp:150] Setting up pool5
I0227 16:57:20.232913 113184 net.cpp:157] Top shape: 50 256 6 6 (460800)
I0227 16:57:20.232914 113184 net.cpp:165] Memory required for data: 338092600
I0227 16:57:20.232916 113184 layer_factory.hpp:77] Creating layer fc6
I0227 16:57:20.232928 113184 net.cpp:106] Creating Layer fc6
I0227 16:57:20.232930 113184 net.cpp:454] fc6 <- pool5
I0227 16:57:20.232935 113184 net.cpp:411] fc6 -> fc6
I0227 16:57:20.634905 113184 net.cpp:150] Setting up fc6
I0227 16:57:20.634933 113184 net.cpp:157] Top shape: 50 4096 (204800)
I0227 16:57:20.634937 113184 net.cpp:165] Memory required for data: 338911800
I0227 16:57:20.634945 113184 layer_factory.hpp:77] Creating layer relu6
I0227 16:57:20.634955 113184 net.cpp:106] Creating Layer relu6
I0227 16:57:20.634959 113184 net.cpp:454] relu6 <- fc6
I0227 16:57:20.634966 113184 net.cpp:397] relu6 -> fc6 (in-place)
I0227 16:57:20.635170 113184 net.cpp:150] Setting up relu6
I0227 16:57:20.635176 113184 net.cpp:157] Top shape: 50 4096 (204800)
I0227 16:57:20.635179 113184 net.cpp:165] Memory required for data: 339731000
I0227 16:57:20.635181 113184 layer_factory.hpp:77] Creating layer drop6
I0227 16:57:20.635192 113184 net.cpp:106] Creating Layer drop6
I0227 16:57:20.635195 113184 net.cpp:454] drop6 <- fc6
I0227 16:57:20.635198 113184 net.cpp:397] drop6 -> fc6 (in-place)
I0227 16:57:20.635228 113184 net.cpp:150] Setting up drop6
I0227 16:57:20.635232 113184 net.cpp:157] Top shape: 50 4096 (204800)
I0227 16:57:20.635234 113184 net.cpp:165] Memory required for data: 340550200
I0227 16:57:20.635236 113184 layer_factory.hpp:77] Creating layer fc7
I0227 16:57:20.635244 113184 net.cpp:106] Creating Layer fc7
I0227 16:57:20.635247 113184 net.cpp:454] fc7 <- fc6
I0227 16:57:20.635251 113184 net.cpp:411] fc7 -> fc7
I0227 16:57:20.814115 113184 net.cpp:150] Setting up fc7
I0227 16:57:20.814139 113184 net.cpp:157] Top shape: 50 4096 (204800)
I0227 16:57:20.814141 113184 net.cpp:165] Memory required for data: 341369400
I0227 16:57:20.814151 113184 layer_factory.hpp:77] Creating layer relu7
I0227 16:57:20.814160 113184 net.cpp:106] Creating Layer relu7
I0227 16:57:20.814163 113184 net.cpp:454] relu7 <- fc7
I0227 16:57:20.814172 113184 net.cpp:397] relu7 -> fc7 (in-place)
I0227 16:57:20.814538 113184 net.cpp:150] Setting up relu7
I0227 16:57:20.814546 113184 net.cpp:157] Top shape: 50 4096 (204800)
I0227 16:57:20.814549 113184 net.cpp:165] Memory required for data: 342188600
I0227 16:57:20.814551 113184 layer_factory.hpp:77] Creating layer drop7
I0227 16:57:20.814558 113184 net.cpp:106] Creating Layer drop7
I0227 16:57:20.814560 113184 net.cpp:454] drop7 <- fc7
I0227 16:57:20.814566 113184 net.cpp:397] drop7 -> fc7 (in-place)
I0227 16:57:20.814591 113184 net.cpp:150] Setting up drop7
I0227 16:57:20.814597 113184 net.cpp:157] Top shape: 50 4096 (204800)
I0227 16:57:20.814599 113184 net.cpp:165] Memory required for data: 343007800
I0227 16:57:20.814606 113184 layer_factory.hpp:77] Creating layer fc8_reg
I0227 16:57:20.814612 113184 net.cpp:106] Creating Layer fc8_reg
I0227 16:57:20.814615 113184 net.cpp:454] fc8_reg <- fc7
I0227 16:57:20.814622 113184 net.cpp:411] fc8_reg -> fc8_reg
I0227 16:57:20.815377 113184 net.cpp:150] Setting up fc8_reg
I0227 16:57:20.815387 113184 net.cpp:157] Top shape: 50 4 (200)
I0227 16:57:20.815388 113184 net.cpp:165] Memory required for data: 343008600
I0227 16:57:20.815393 113184 layer_factory.hpp:77] Creating layer loss
I0227 16:57:20.815403 113184 net.cpp:106] Creating Layer loss
I0227 16:57:20.815407 113184 net.cpp:454] loss <- label
I0227 16:57:20.815410 113184 net.cpp:454] loss <- fc8_reg
I0227 16:57:20.815413 113184 net.cpp:411] loss -> loss
I0227 16:57:20.815448 113184 net.cpp:150] Setting up loss
…
