…
I0226 00:59:06.676482 120169 net.cpp:322] The NetState phase (0) differed from the phase (1) specified by a rule in layer data
I0226 00:59:06.676630 120169 net.cpp:49] Initializing net from parameters: 
name: "FlickrStyleCaffeNet"
state {
  phase: TRAIN
}
layer {
  name: "data"
  type: "ImageData"
  top: "data"
  top: "label"
  include {
    phase: TRAIN
  }
  transform_param {
    mirror: false
    crop_size: 227
    mean_value: 104
  }
  image_data_param {
    source: "/scratch/16824/data/trainlist_bbox2.txt"
    batch_size: 50
    shuffle: true
    new_height: 227
    new_width: 227
    root_folder: "/scratch/16824/data/crop_imgs/"
    label_num: 4
  }
}
layer {
  name: "conv1"
  type: "Convolution"
  bottom: "data"
  top: "conv1"
  param {
    lr_mult: 1
    decay_mult: 1
  }
  param {
    lr_mult: 2
    decay_mult: 0
  }
  convolution_param {
    num_output: 96
    kernel_size: 11
    stride: 4
    weight_filler {
      type: "gaussian"
      std: 0.01
    }
    bias_filler {
      type: "constant"
      value: 0
    }
  }
}
layer {
  name: "relu1"
  type: "ReLU"
  bottom: "conv1"
  top: "conv1"
}
layer {
  name: "pool1"
  type: "Pooling"
  bottom: "conv1"
  top: "pool1"
  pooling_param {
    pool: MAX
    kernel_size: 3
    stride: 2
  }
}
layer {
  name: "norm1"
  type: "LRN"
  bottom: "pool1"
  top: "norm1"
  lrn_param {
    local_size: 5
    alpha: 0.0001
    beta: 0.75
  }
}
layer {
  name: "conv2"
  type: "Convolution"
  bottom: "norm1"
  top: "conv2"
  param {
    lr_mult: 1
    decay_mult: 1
  }
  param {
    lr_mult: 2
    decay_mult: 0
  }
  convolution_param {
    num_output: 256
    pad: 2
    kernel_size: 5
    group: 2
    weight_filler {
      type: "gaussian"
      std: 0.01
    }
    bias_filler {
      type: "constant"
      value: 1
    }
  }
}
layer {
  name: "relu2"
  type: "ReLU"
  bottom: "conv2"
  top: "conv2"
}
layer {
  name: "pool2"
  type: "Pooling"
  bottom: "conv2"
  top: "pool2"
  pooling_param {
    pool: MAX
    kernel_size: 3
    stride: 2
  }
}
layer {
  name: "norm2"
  type: "LRN"
  bottom: "pool2"
  top: "norm2"
  lrn_param {
    local_size: 5
    alpha: 0.0001
    beta: 0.75
  }
}
layer {
  name: "conv3"
  type: "Convolution"
  bottom: "norm2"
  top: "conv3"
  param {
    lr_mult: 1
    decay_mult: 1
  }
  param {
    lr_mult: 2
    decay_mult: 0
  }
  convolution_param {
    num_output: 384
    pad: 1
    kernel_size: 3
    weight_filler {
      type: "gaussian"
      std: 0.01
    }
    bias_filler {
      type: "constant"
      value: 0
    }
  }
}
layer {
  name: "relu3"
  type: "ReLU"
  bottom: "conv3"
  top: "conv3"
}
layer {
  name: "conv4"
  type: "Convolution"
  bottom: "conv3"
  top: "conv4"
  param {
    lr_mult: 1
    decay_mult: 1
  }
  param {
    lr_mult: 2
    decay_mult: 0
  }
  convolution_param {
    num_output: 384
    pad: 1
    kernel_size: 3
    group: 2
    weight_filler {
      type: "gaussian"
      std: 0.01
    }
    bias_filler {
      type: "constant"
      value: 1
    }
  }
}
layer {
  name: "relu4"
  type: "ReLU"
  bottom: "conv4"
  top: "conv4"
}
layer {
  name: "conv5"
  type: "Convolution"
  bottom: "conv4"
  top: "conv5"
  param {
    lr_mult: 1
    decay_mult: 1
  }
  param {
    lr_mult: 2
    decay_mult: 0
  }
  convolution_param {
    num_output: 256
    pad: 1
    kernel_size: 3
    group: 2
    weight_filler {
      type: "gaussian"
      std: 0.01
    }
    bias_filler {
      type: "constant"
      value: 1
    }
  }
}
layer {
  name: "relu5"
  type: "ReLU"
  bottom: "conv5"
  top: "conv5"
}
layer {
  name: "pool5"
  type: "Pooling"
  bottom: "conv5"
  top: "pool5"
  pooling_param {
    pool: MAX
    kernel_size: 3
    stride: 2
  }
}
layer {
  name: "fc6"
  type: "InnerProduct"
  bottom: "pool5"
  top: "fc6"
  param {
    lr_mult: 1
    decay_mult: 1
  }
  param {
    lr_mult: 2
    decay_mult: 0
  }
  inner_product_param {
    num_output: 4096
    weight_filler {
      type: "gaussian"
      std: 0.005
    }
    bias_filler {
      type: "constant"
      value: 1
    }
  }
}
layer {
  name: "relu6"
  type: "ReLU"
  bottom: "fc6"
  top: "fc6"
}
layer {
  name: "drop6"
  type: "Dropout"
  bottom: "fc6"
  top: "fc6"
  dropout_param {
    dropout_ratio: 0.5
  }
}
layer {
  name: "fc7"
  type: "InnerProduct"
  bottom: "fc6"
  top: "fc7"
  param {
    lr_mult: 1
    decay_mult: 1
  }
  param {
    lr_mult: 2
    decay_mult: 0
  }
  inner_product_param {
    num_output: 4096
    weight_filler {
      type: "gaussian"
      std: 0.005
    }
    bias_filler {
      type: "constant"
      value: 1
    }
  }
}
layer {
  name: "relu7"
  type: "ReLU"
  bottom: "fc7"
  top: "fc7"
}
layer {
  name: "drop7"
  type: "Dropout"
  bottom: "fc7"
  top: "fc7"
  dropout_param {
    dropout_ratio: 0.5
  }
}
layer {
  name: "fc8_reg"
  type: "InnerProduct"
  bottom: "fc7"
  top: "fc8_reg"
  param {
    lr_mult: 10
    decay_mult: 1
  }
  param {
    lr_mult: 20
    decay_mult: 0
  }
  inner_product_param {
    num_output: 4
    weight_filler {
      type: "gaussian"
      std: 0.001
    }
    bias_filler {
      type: "constant"
      value: 0
    }
  }
}
layer {
  name: "loss"
  type: "EuclideanLoss"
  bottom: "label"
  bottom: "fc8_reg"
  top: "loss"
}
I0226 00:59:06.676705 120169 layer_factory.hpp:77] Creating layer data
I0226 00:59:06.676725 120169 net.cpp:106] Creating Layer data
I0226 00:59:06.676731 120169 net.cpp:411] data -> data
I0226 00:59:06.676744 120169 net.cpp:411] data -> label
I0226 00:59:06.677160 120169 image_data_layer.cpp:40] Opening file /scratch/16824/data/trainlist_bbox2.txt
I0226 00:59:06.743913 120169 image_data_layer.cpp:57] Shuffling data
I0226 00:59:06.748957 120169 image_data_layer.cpp:62] A total of 36752 images.
I0226 00:59:06.757015 120169 image_data_layer.cpp:89] output data size: 50,3,227,227
I0226 00:59:06.812800 120169 net.cpp:150] Setting up data
I0226 00:59:06.812827 120169 net.cpp:157] Top shape: 50 3 227 227 (7729350)
I0226 00:59:06.812832 120169 net.cpp:157] Top shape: 50 4 1 1 (200)
I0226 00:59:06.812835 120169 net.cpp:165] Memory required for data: 30918200
I0226 00:59:06.812841 120169 layer_factory.hpp:77] Creating layer conv1
I0226 00:59:06.812872 120169 net.cpp:106] Creating Layer conv1
I0226 00:59:06.812877 120169 net.cpp:454] conv1 <- data
I0226 00:59:06.812885 120169 net.cpp:411] conv1 -> conv1
I0226 00:59:06.965878 120169 net.cpp:150] Setting up conv1
I0226 00:59:06.965903 120169 net.cpp:157] Top shape: 50 96 55 55 (14520000)
I0226 00:59:06.965905 120169 net.cpp:165] Memory required for data: 88998200
I0226 00:59:06.965920 120169 layer_factory.hpp:77] Creating layer relu1
I0226 00:59:06.965932 120169 net.cpp:106] Creating Layer relu1
I0226 00:59:06.965936 120169 net.cpp:454] relu1 <- conv1
I0226 00:59:06.965940 120169 net.cpp:397] relu1 -> conv1 (in-place)
I0226 00:59:06.966167 120169 net.cpp:150] Setting up relu1
I0226 00:59:06.966176 120169 net.cpp:157] Top shape: 50 96 55 55 (14520000)
I0226 00:59:06.966179 120169 net.cpp:165] Memory required for data: 147078200
I0226 00:59:06.966182 120169 layer_factory.hpp:77] Creating layer pool1
I0226 00:59:06.966190 120169 net.cpp:106] Creating Layer pool1
I0226 00:59:06.966192 120169 net.cpp:454] pool1 <- conv1
I0226 00:59:06.966197 120169 net.cpp:411] pool1 -> pool1
I0226 00:59:06.966233 120169 net.cpp:150] Setting up pool1
I0226 00:59:06.966238 120169 net.cpp:157] Top shape: 50 96 27 27 (3499200)
I0226 00:59:06.966239 120169 net.cpp:165] Memory required for data: 161075000
I0226 00:59:06.966243 120169 layer_factory.hpp:77] Creating layer norm1
I0226 00:59:06.966255 120169 net.cpp:106] Creating Layer norm1
I0226 00:59:06.966259 120169 net.cpp:454] norm1 <- pool1
I0226 00:59:06.966261 120169 net.cpp:411] norm1 -> norm1
I0226 00:59:06.966413 120169 net.cpp:150] Setting up norm1
I0226 00:59:06.966420 120169 net.cpp:157] Top shape: 50 96 27 27 (3499200)
I0226 00:59:06.966423 120169 net.cpp:165] Memory required for data: 175071800
I0226 00:59:06.966425 120169 layer_factory.hpp:77] Creating layer conv2
I0226 00:59:06.966435 120169 net.cpp:106] Creating Layer conv2
I0226 00:59:06.966437 120169 net.cpp:454] conv2 <- norm1
I0226 00:59:06.966442 120169 net.cpp:411] conv2 -> conv2
I0226 00:59:06.976598 120169 net.cpp:150] Setting up conv2
I0226 00:59:06.976609 120169 net.cpp:157] Top shape: 50 256 27 27 (9331200)
I0226 00:59:06.976611 120169 net.cpp:165] Memory required for data: 212396600
I0226 00:59:06.976619 120169 layer_factory.hpp:77] Creating layer relu2
I0226 00:59:06.976625 120169 net.cpp:106] Creating Layer relu2
I0226 00:59:06.976629 120169 net.cpp:454] relu2 <- conv2
I0226 00:59:06.976632 120169 net.cpp:397] relu2 -> conv2 (in-place)
I0226 00:59:06.976769 120169 net.cpp:150] Setting up relu2
I0226 00:59:06.976776 120169 net.cpp:157] Top shape: 50 256 27 27 (9331200)
I0226 00:59:06.976779 120169 net.cpp:165] Memory required for data: 249721400
I0226 00:59:06.976783 120169 layer_factory.hpp:77] Creating layer pool2
I0226 00:59:06.976788 120169 net.cpp:106] Creating Layer pool2
I0226 00:59:06.976790 120169 net.cpp:454] pool2 <- conv2
I0226 00:59:06.976794 120169 net.cpp:411] pool2 -> pool2
I0226 00:59:06.976825 120169 net.cpp:150] Setting up pool2
I0226 00:59:06.976830 120169 net.cpp:157] Top shape: 50 256 13 13 (2163200)
I0226 00:59:06.976831 120169 net.cpp:165] Memory required for data: 258374200
I0226 00:59:06.976835 120169 layer_factory.hpp:77] Creating layer norm2
I0226 00:59:06.976840 120169 net.cpp:106] Creating Layer norm2
I0226 00:59:06.976842 120169 net.cpp:454] norm2 <- pool2
I0226 00:59:06.976846 120169 net.cpp:411] norm2 -> norm2
I0226 00:59:06.977089 120169 net.cpp:150] Setting up norm2
I0226 00:59:06.977097 120169 net.cpp:157] Top shape: 50 256 13 13 (2163200)
I0226 00:59:06.977100 120169 net.cpp:165] Memory required for data: 267027000
I0226 00:59:06.977103 120169 layer_factory.hpp:77] Creating layer conv3
I0226 00:59:06.977111 120169 net.cpp:106] Creating Layer conv3
I0226 00:59:06.977113 120169 net.cpp:454] conv3 <- norm2
I0226 00:59:06.977118 120169 net.cpp:411] conv3 -> conv3
I0226 00:59:06.987673 120169 net.cpp:150] Setting up conv3
I0226 00:59:06.987684 120169 net.cpp:157] Top shape: 50 384 13 13 (3244800)
I0226 00:59:06.987687 120169 net.cpp:165] Memory required for data: 280006200
I0226 00:59:06.987697 120169 layer_factory.hpp:77] Creating layer relu3
I0226 00:59:06.987704 120169 net.cpp:106] Creating Layer relu3
I0226 00:59:06.987706 120169 net.cpp:454] relu3 <- conv3
I0226 00:59:06.987711 120169 net.cpp:397] relu3 -> conv3 (in-place)
I0226 00:59:06.987864 120169 net.cpp:150] Setting up relu3
I0226 00:59:06.987870 120169 net.cpp:157] Top shape: 50 384 13 13 (3244800)
I0226 00:59:06.987872 120169 net.cpp:165] Memory required for data: 292985400
I0226 00:59:06.987875 120169 layer_factory.hpp:77] Creating layer conv4
I0226 00:59:06.987884 120169 net.cpp:106] Creating Layer conv4
I0226 00:59:06.987887 120169 net.cpp:454] conv4 <- conv3
I0226 00:59:06.987893 120169 net.cpp:411] conv4 -> conv4
I0226 00:59:06.996534 120169 net.cpp:150] Setting up conv4
I0226 00:59:06.996546 120169 net.cpp:157] Top shape: 50 384 13 13 (3244800)
I0226 00:59:06.996547 120169 net.cpp:165] Memory required for data: 305964600
I0226 00:59:06.996553 120169 layer_factory.hpp:77] Creating layer relu4
I0226 00:59:06.996561 120169 net.cpp:106] Creating Layer relu4
I0226 00:59:06.996563 120169 net.cpp:454] relu4 <- conv4
I0226 00:59:06.996567 120169 net.cpp:397] relu4 -> conv4 (in-place)
I0226 00:59:06.996726 120169 net.cpp:150] Setting up relu4
I0226 00:59:06.996732 120169 net.cpp:157] Top shape: 50 384 13 13 (3244800)
I0226 00:59:06.996736 120169 net.cpp:165] Memory required for data: 318943800
I0226 00:59:06.996742 120169 layer_factory.hpp:77] Creating layer conv5
I0226 00:59:06.996750 120169 net.cpp:106] Creating Layer conv5
I0226 00:59:06.996753 120169 net.cpp:454] conv5 <- conv4
I0226 00:59:06.996759 120169 net.cpp:411] conv5 -> conv5
I0226 00:59:07.003123 120169 net.cpp:150] Setting up conv5
I0226 00:59:07.003134 120169 net.cpp:157] Top shape: 50 256 13 13 (2163200)
I0226 00:59:07.003136 120169 net.cpp:165] Memory required for data: 327596600
I0226 00:59:07.003144 120169 layer_factory.hpp:77] Creating layer relu5
I0226 00:59:07.003152 120169 net.cpp:106] Creating Layer relu5
I0226 00:59:07.003154 120169 net.cpp:454] relu5 <- conv5
I0226 00:59:07.003159 120169 net.cpp:397] relu5 -> conv5 (in-place)
I0226 00:59:07.003407 120169 net.cpp:150] Setting up relu5
I0226 00:59:07.003415 120169 net.cpp:157] Top shape: 50 256 13 13 (2163200)
I0226 00:59:07.003417 120169 net.cpp:165] Memory required for data: 336249400
I0226 00:59:07.003420 120169 layer_factory.hpp:77] Creating layer pool5
I0226 00:59:07.003428 120169 net.cpp:106] Creating Layer pool5
I0226 00:59:07.003432 120169 net.cpp:454] pool5 <- conv5
I0226 00:59:07.003435 120169 net.cpp:411] pool5 -> pool5
I0226 00:59:07.003473 120169 net.cpp:150] Setting up pool5
I0226 00:59:07.003479 120169 net.cpp:157] Top shape: 50 256 6 6 (460800)
I0226 00:59:07.003480 120169 net.cpp:165] Memory required for data: 338092600
I0226 00:59:07.003484 120169 layer_factory.hpp:77] Creating layer fc6
I0226 00:59:07.003494 120169 net.cpp:106] Creating Layer fc6
I0226 00:59:07.003497 120169 net.cpp:454] fc6 <- pool5
I0226 00:59:07.003501 120169 net.cpp:411] fc6 -> fc6
I0226 00:59:07.402426 120169 net.cpp:150] Setting up fc6
I0226 00:59:07.402452 120169 net.cpp:157] Top shape: 50 4096 (204800)
I0226 00:59:07.402456 120169 net.cpp:165] Memory required for data: 338911800
I0226 00:59:07.402464 120169 layer_factory.hpp:77] Creating layer relu6
I0226 00:59:07.402473 120169 net.cpp:106] Creating Layer relu6
I0226 00:59:07.402478 120169 net.cpp:454] relu6 <- fc6
I0226 00:59:07.402484 120169 net.cpp:397] relu6 -> fc6 (in-place)
I0226 00:59:07.402690 120169 net.cpp:150] Setting up relu6
I0226 00:59:07.402698 120169 net.cpp:157] Top shape: 50 4096 (204800)
I0226 00:59:07.402699 120169 net.cpp:165] Memory required for data: 339731000
I0226 00:59:07.402703 120169 layer_factory.hpp:77] Creating layer drop6
I0226 00:59:07.402714 120169 net.cpp:106] Creating Layer drop6
I0226 00:59:07.402716 120169 net.cpp:454] drop6 <- fc6
I0226 00:59:07.402720 120169 net.cpp:397] drop6 -> fc6 (in-place)
I0226 00:59:07.402745 120169 net.cpp:150] Setting up drop6
I0226 00:59:07.402750 120169 net.cpp:157] Top shape: 50 4096 (204800)
I0226 00:59:07.402752 120169 net.cpp:165] Memory required for data: 340550200
I0226 00:59:07.402755 120169 layer_factory.hpp:77] Creating layer fc7
I0226 00:59:07.402761 120169 net.cpp:106] Creating Layer fc7
I0226 00:59:07.402763 120169 net.cpp:454] fc7 <- fc6
I0226 00:59:07.402770 120169 net.cpp:411] fc7 -> fc7
I0226 00:59:07.580437 120169 net.cpp:150] Setting up fc7
I0226 00:59:07.580462 120169 net.cpp:157] Top shape: 50 4096 (204800)
I0226 00:59:07.580466 120169 net.cpp:165] Memory required for data: 341369400
I0226 00:59:07.580473 120169 layer_factory.hpp:77] Creating layer relu7
I0226 00:59:07.580484 120169 net.cpp:106] Creating Layer relu7
I0226 00:59:07.580488 120169 net.cpp:454] relu7 <- fc7
I0226 00:59:07.580493 120169 net.cpp:397] relu7 -> fc7 (in-place)
I0226 00:59:07.580883 120169 net.cpp:150] Setting up relu7
I0226 00:59:07.580891 120169 net.cpp:157] Top shape: 50 4096 (204800)
I0226 00:59:07.580894 120169 net.cpp:165] Memory required for data: 342188600
I0226 00:59:07.580898 120169 layer_factory.hpp:77] Creating layer drop7
I0226 00:59:07.580904 120169 net.cpp:106] Creating Layer drop7
I0226 00:59:07.580906 120169 net.cpp:454] drop7 <- fc7
I0226 00:59:07.580911 120169 net.cpp:397] drop7 -> fc7 (in-place)
I0226 00:59:07.580937 120169 net.cpp:150] Setting up drop7
I0226 00:59:07.580942 120169 net.cpp:157] Top shape: 50 4096 (204800)
I0226 00:59:07.580945 120169 net.cpp:165] Memory required for data: 343007800
I0226 00:59:07.580951 120169 layer_factory.hpp:77] Creating layer fc8_reg
I0226 00:59:07.580960 120169 net.cpp:106] Creating Layer fc8_reg
I0226 00:59:07.580961 120169 net.cpp:454] fc8_reg <- fc7
I0226 00:59:07.580967 120169 net.cpp:411] fc8_reg -> fc8_reg
I0226 00:59:07.581719 120169 net.cpp:150] Setting up fc8_reg
I0226 00:59:07.581728 120169 net.cpp:157] Top shape: 50 4 (200)
I0226 00:59:07.581730 120169 net.cpp:165] Memory required for data: 343008600
I0226 00:59:07.581735 120169 layer_factory.hpp:77] Creating layer loss
I0226 00:59:07.581744 120169 net.cpp:106] Creating Layer loss
I0226 00:59:07.581746 120169 net.cpp:454] loss <- label
I0226 00:59:07.581750 120169 net.cpp:454] loss <- fc8_reg
I0226 00:59:07.581756 120169 net.cpp:411] loss -> loss
I0226 00:59:07.581789 120169 net.cpp:150] Setting up loss
…
