…
I0226 18:43:09.094359 32686 net.cpp:322] The NetState phase (0) differed from the phase (1) specified by a rule in layer data
I0226 18:43:09.094527 32686 net.cpp:49] Initializing net from parameters: 
name: "FlickrStyleCaffeNet"
state {
  phase: TRAIN
}
layer {
  name: "data"
  type: "ImageData"
  top: "data"
  top: "pair_label"
  include {
    phase: TRAIN
  }
  transform_param {
    mirror: false
    crop_size: 227
    mean_value: 104
  }
  image_data_param {
    source: "/scratch/16824/data/trainlist_both2.txt"
    batch_size: 50
    shuffle: true
    new_height: 227
    new_width: 227
    root_folder: "/scratch/16824/data/crop_imgs/"
    label_num: 5
  }
}
layer {
  name: "slice_data"
  type: "Slice"
  bottom: "pair_label"
  top: "cls_label"
  top: "bbox_label"
  slice_param {
    slice_point: 1
    axis: 1
  }
}
layer {
  name: "conv1"
  type: "Convolution"
  bottom: "data"
  top: "conv1"
  param {
    lr_mult: 1
    decay_mult: 1
  }
  param {
    lr_mult: 2
    decay_mult: 0
  }
  convolution_param {
    num_output: 96
    kernel_size: 11
    stride: 4
    weight_filler {
      type: "gaussian"
      std: 0.01
    }
    bias_filler {
      type: "constant"
      value: 0
    }
  }
}
layer {
  name: "relu1"
  type: "ReLU"
  bottom: "conv1"
  top: "conv1"
}
layer {
  name: "pool1"
  type: "Pooling"
  bottom: "conv1"
  top: "pool1"
  pooling_param {
    pool: MAX
    kernel_size: 3
    stride: 2
  }
}
layer {
  name: "norm1"
  type: "LRN"
  bottom: "pool1"
  top: "norm1"
  lrn_param {
    local_size: 5
    alpha: 0.0001
    beta: 0.75
  }
}
layer {
  name: "conv2"
  type: "Convolution"
  bottom: "norm1"
  top: "conv2"
  param {
    lr_mult: 1
    decay_mult: 1
  }
  param {
    lr_mult: 2
    decay_mult: 0
  }
  convolution_param {
    num_output: 256
    pad: 2
    kernel_size: 5
    group: 2
    weight_filler {
      type: "gaussian"
      std: 0.01
    }
    bias_filler {
      type: "constant"
      value: 1
    }
  }
}
layer {
  name: "relu2"
  type: "ReLU"
  bottom: "conv2"
  top: "conv2"
}
layer {
  name: "pool2"
  type: "Pooling"
  bottom: "conv2"
  top: "pool2"
  pooling_param {
    pool: MAX
    kernel_size: 3
    stride: 2
  }
}
layer {
  name: "norm2"
  type: "LRN"
  bottom: "pool2"
  top: "norm2"
  lrn_param {
    local_size: 5
    alpha: 0.0001
    beta: 0.75
  }
}
layer {
  name: "conv3"
  type: "Convolution"
  bottom: "norm2"
  top: "conv3"
  param {
    lr_mult: 1
    decay_mult: 1
  }
  param {
    lr_mult: 2
    decay_mult: 0
  }
  convolution_param {
    num_output: 384
    pad: 1
    kernel_size: 3
    weight_filler {
      type: "gaussian"
      std: 0.01
    }
    bias_filler {
      type: "constant"
      value: 0
    }
  }
}
layer {
  name: "relu3"
  type: "ReLU"
  bottom: "conv3"
  top: "conv3"
}
layer {
  name: "conv4"
  type: "Convolution"
  bottom: "conv3"
  top: "conv4"
  param {
    lr_mult: 1
    decay_mult: 1
  }
  param {
    lr_mult: 2
    decay_mult: 0
  }
  convolution_param {
    num_output: 384
    pad: 1
    kernel_size: 3
    group: 2
    weight_filler {
      type: "gaussian"
      std: 0.01
    }
    bias_filler {
      type: "constant"
      value: 1
    }
  }
}
layer {
  name: "relu4"
  type: "ReLU"
  bottom: "conv4"
  top: "conv4"
}
layer {
  name: "conv5"
  type: "Convolution"
  bottom: "conv4"
  top: "conv5"
  param {
    lr_mult: 1
    decay_mult: 1
  }
  param {
    lr_mult: 2
    decay_mult: 0
  }
  convolution_param {
    num_output: 256
    pad: 1
    kernel_size: 3
    group: 2
    weight_filler {
      type: "gaussian"
      std: 0.01
    }
    bias_filler {
      type: "constant"
      value: 1
    }
  }
}
layer {
  name: "relu5"
  type: "ReLU"
  bottom: "conv5"
  top: "conv5"
}
layer {
  name: "pool5"
  type: "Pooling"
  bottom: "conv5"
  top: "pool5"
  pooling_param {
    pool: MAX
    kernel_size: 3
    stride: 2
  }
}
layer {
  name: "fc6"
  type: "InnerProduct"
  bottom: "pool5"
  top: "fc6"
  param {
    lr_mult: 1
    decay_mult: 1
  }
  param {
    lr_mult: 2
    decay_mult: 0
  }
  inner_product_param {
    num_output: 4096
    weight_filler {
      type: "gaussian"
      std: 0.005
    }
    bias_filler {
      type: "constant"
      value: 1
    }
  }
}
layer {
  name: "relu6"
  type: "ReLU"
  bottom: "fc6"
  top: "fc6"
}
layer {
  name: "drop6"
  type: "Dropout"
  bottom: "fc6"
  top: "fc6"
  dropout_param {
    dropout_ratio: 0.5
  }
}
layer {
  name: "fc7"
  type: "InnerProduct"
  bottom: "fc6"
  top: "fc7"
  param {
    lr_mult: 1
    decay_mult: 1
  }
  param {
    lr_mult: 2
    decay_mult: 0
  }
  inner_product_param {
    num_output: 4096
    weight_filler {
      type: "gaussian"
      std: 0.005
    }
    bias_filler {
      type: "constant"
      value: 1
    }
  }
}
layer {
  name: "relu7"
  type: "ReLU"
  bottom: "fc7"
  top: "fc7"
}
layer {
  name: "drop7"
  type: "Dropout"
  bottom: "fc7"
  top: "fc7"
  dropout_param {
    dropout_ratio: 0.5
  }
}
layer {
  name: "fc8_cls"
  type: "InnerProduct"
  bottom: "fc7"
  top: "fc8_cls"
  param {
    lr_mult: 1
    decay_mult: 1
  }
  param {
    lr_mult: 2
    decay_mult: 0
  }
  inner_product_param {
    num_output: 30
    weight_filler {
      type: "gaussian"
      std: 0.01
    }
    bias_filler {
      type: "constant"
      value: 0
    }
  }
}
layer {
  name: "fc8_reg"
  type: "InnerProduct"
  bottom: "fc7"
  top: "fc8_reg"
  param {
    lr_mult: 1
    decay_mult: 1
  }
  param {
    lr_mult: 2
    decay_mult: 0
  }
  inner_product_param {
    num_output: 4
    weight_filler {
      type: "gaussian"
      std: 0.001
    }
    bias_filler {
      type: "constant"
      value: 0
    }
  }
}
layer {
  name: "cls_loss"
  type: "SoftmaxWithLoss"
  bottom: "fc8_cls"
  bottom: "cls_label"
  top: "cls_loss"
  loss_weight: 1
}
layer {
  name: "reg_loss"
  type: "EuclideanLoss"
  bottom: "bbox_label"
  bottom: "fc8_reg"
  top: "reg_loss"
  loss_weight: 1
}
I0226 18:43:09.094617 32686 layer_factory.hpp:77] Creating layer data
I0226 18:43:09.094636 32686 net.cpp:106] Creating Layer data
I0226 18:43:09.094641 32686 net.cpp:411] data -> data
I0226 18:43:09.094653 32686 net.cpp:411] data -> pair_label
I0226 18:43:09.095064 32686 image_data_layer.cpp:40] Opening file /scratch/16824/data/trainlist_both2.txt
I0226 18:43:09.169375 32686 image_data_layer.cpp:57] Shuffling data
I0226 18:43:09.174638 32686 image_data_layer.cpp:62] A total of 36752 images.
I0226 18:43:09.185225 32686 image_data_layer.cpp:89] output data size: 50,3,227,227
I0226 18:43:09.240329 32686 net.cpp:150] Setting up data
I0226 18:43:09.240357 32686 net.cpp:157] Top shape: 50 3 227 227 (7729350)
I0226 18:43:09.240362 32686 net.cpp:157] Top shape: 50 5 1 1 (250)
I0226 18:43:09.240365 32686 net.cpp:165] Memory required for data: 30918400
I0226 18:43:09.240372 32686 layer_factory.hpp:77] Creating layer slice_data
I0226 18:43:09.240387 32686 net.cpp:106] Creating Layer slice_data
I0226 18:43:09.240391 32686 net.cpp:454] slice_data <- pair_label
I0226 18:43:09.240397 32686 net.cpp:411] slice_data -> cls_label
I0226 18:43:09.240406 32686 net.cpp:411] slice_data -> bbox_label
I0226 18:43:09.240559 32686 net.cpp:150] Setting up slice_data
I0226 18:43:09.240571 32686 net.cpp:157] Top shape: 50 1 1 1 (50)
I0226 18:43:09.240576 32686 net.cpp:157] Top shape: 50 4 1 1 (200)
I0226 18:43:09.240577 32686 net.cpp:165] Memory required for data: 30919400
I0226 18:43:09.240581 32686 layer_factory.hpp:77] Creating layer conv1
I0226 18:43:09.240595 32686 net.cpp:106] Creating Layer conv1
I0226 18:43:09.240598 32686 net.cpp:454] conv1 <- data
I0226 18:43:09.240608 32686 net.cpp:411] conv1 -> conv1
I0226 18:43:09.418215 32686 net.cpp:150] Setting up conv1
I0226 18:43:09.418242 32686 net.cpp:157] Top shape: 50 96 55 55 (14520000)
I0226 18:43:09.418246 32686 net.cpp:165] Memory required for data: 88999400
I0226 18:43:09.418261 32686 layer_factory.hpp:77] Creating layer relu1
I0226 18:43:09.418273 32686 net.cpp:106] Creating Layer relu1
I0226 18:43:09.418277 32686 net.cpp:454] relu1 <- conv1
I0226 18:43:09.418282 32686 net.cpp:397] relu1 -> conv1 (in-place)
I0226 18:43:09.418514 32686 net.cpp:150] Setting up relu1
I0226 18:43:09.418524 32686 net.cpp:157] Top shape: 50 96 55 55 (14520000)
I0226 18:43:09.418526 32686 net.cpp:165] Memory required for data: 147079400
I0226 18:43:09.418529 32686 layer_factory.hpp:77] Creating layer pool1
I0226 18:43:09.418539 32686 net.cpp:106] Creating Layer pool1
I0226 18:43:09.418541 32686 net.cpp:454] pool1 <- conv1
I0226 18:43:09.418546 32686 net.cpp:411] pool1 -> pool1
I0226 18:43:09.418581 32686 net.cpp:150] Setting up pool1
I0226 18:43:09.418586 32686 net.cpp:157] Top shape: 50 96 27 27 (3499200)
I0226 18:43:09.418588 32686 net.cpp:165] Memory required for data: 161076200
I0226 18:43:09.418591 32686 layer_factory.hpp:77] Creating layer norm1
I0226 18:43:09.418598 32686 net.cpp:106] Creating Layer norm1
I0226 18:43:09.418601 32686 net.cpp:454] norm1 <- pool1
I0226 18:43:09.418604 32686 net.cpp:411] norm1 -> norm1
I0226 18:43:09.418753 32686 net.cpp:150] Setting up norm1
I0226 18:43:09.418759 32686 net.cpp:157] Top shape: 50 96 27 27 (3499200)
I0226 18:43:09.418762 32686 net.cpp:165] Memory required for data: 175073000
I0226 18:43:09.418766 32686 layer_factory.hpp:77] Creating layer conv2
I0226 18:43:09.418776 32686 net.cpp:106] Creating Layer conv2
I0226 18:43:09.418777 32686 net.cpp:454] conv2 <- norm1
I0226 18:43:09.418782 32686 net.cpp:411] conv2 -> conv2
I0226 18:43:09.423833 32686 net.cpp:150] Setting up conv2
I0226 18:43:09.423845 32686 net.cpp:157] Top shape: 50 256 27 27 (9331200)
I0226 18:43:09.423847 32686 net.cpp:165] Memory required for data: 212397800
I0226 18:43:09.423856 32686 layer_factory.hpp:77] Creating layer relu2
I0226 18:43:09.423861 32686 net.cpp:106] Creating Layer relu2
I0226 18:43:09.423864 32686 net.cpp:454] relu2 <- conv2
I0226 18:43:09.423868 32686 net.cpp:397] relu2 -> conv2 (in-place)
I0226 18:43:09.424006 32686 net.cpp:150] Setting up relu2
I0226 18:43:09.424013 32686 net.cpp:157] Top shape: 50 256 27 27 (9331200)
I0226 18:43:09.424015 32686 net.cpp:165] Memory required for data: 249722600
I0226 18:43:09.424018 32686 layer_factory.hpp:77] Creating layer pool2
I0226 18:43:09.424024 32686 net.cpp:106] Creating Layer pool2
I0226 18:43:09.424027 32686 net.cpp:454] pool2 <- conv2
I0226 18:43:09.424032 32686 net.cpp:411] pool2 -> pool2
I0226 18:43:09.424064 32686 net.cpp:150] Setting up pool2
I0226 18:43:09.424069 32686 net.cpp:157] Top shape: 50 256 13 13 (2163200)
I0226 18:43:09.424072 32686 net.cpp:165] Memory required for data: 258375400
I0226 18:43:09.424074 32686 layer_factory.hpp:77] Creating layer norm2
I0226 18:43:09.424079 32686 net.cpp:106] Creating Layer norm2
I0226 18:43:09.424082 32686 net.cpp:454] norm2 <- pool2
I0226 18:43:09.424085 32686 net.cpp:411] norm2 -> norm2
I0226 18:43:09.424326 32686 net.cpp:150] Setting up norm2
I0226 18:43:09.424335 32686 net.cpp:157] Top shape: 50 256 13 13 (2163200)
I0226 18:43:09.424337 32686 net.cpp:165] Memory required for data: 267028200
I0226 18:43:09.424340 32686 layer_factory.hpp:77] Creating layer conv3
I0226 18:43:09.424348 32686 net.cpp:106] Creating Layer conv3
I0226 18:43:09.424351 32686 net.cpp:454] conv3 <- norm2
I0226 18:43:09.424356 32686 net.cpp:411] conv3 -> conv3
I0226 18:43:09.434810 32686 net.cpp:150] Setting up conv3
I0226 18:43:09.434820 32686 net.cpp:157] Top shape: 50 384 13 13 (3244800)
I0226 18:43:09.434823 32686 net.cpp:165] Memory required for data: 280007400
I0226 18:43:09.434834 32686 layer_factory.hpp:77] Creating layer relu3
I0226 18:43:09.434839 32686 net.cpp:106] Creating Layer relu3
I0226 18:43:09.434842 32686 net.cpp:454] relu3 <- conv3
I0226 18:43:09.434851 32686 net.cpp:397] relu3 -> conv3 (in-place)
I0226 18:43:09.435005 32686 net.cpp:150] Setting up relu3
I0226 18:43:09.435012 32686 net.cpp:157] Top shape: 50 384 13 13 (3244800)
I0226 18:43:09.435015 32686 net.cpp:165] Memory required for data: 292986600
I0226 18:43:09.435019 32686 layer_factory.hpp:77] Creating layer conv4
I0226 18:43:09.435026 32686 net.cpp:106] Creating Layer conv4
I0226 18:43:09.435029 32686 net.cpp:454] conv4 <- conv3
I0226 18:43:09.435035 32686 net.cpp:411] conv4 -> conv4
I0226 18:43:09.443665 32686 net.cpp:150] Setting up conv4
I0226 18:43:09.443675 32686 net.cpp:157] Top shape: 50 384 13 13 (3244800)
I0226 18:43:09.443677 32686 net.cpp:165] Memory required for data: 305965800
I0226 18:43:09.443683 32686 layer_factory.hpp:77] Creating layer relu4
I0226 18:43:09.443691 32686 net.cpp:106] Creating Layer relu4
I0226 18:43:09.443694 32686 net.cpp:454] relu4 <- conv4
I0226 18:43:09.443698 32686 net.cpp:397] relu4 -> conv4 (in-place)
I0226 18:43:09.443846 32686 net.cpp:150] Setting up relu4
I0226 18:43:09.443852 32686 net.cpp:157] Top shape: 50 384 13 13 (3244800)
I0226 18:43:09.443856 32686 net.cpp:165] Memory required for data: 318945000
I0226 18:43:09.443857 32686 layer_factory.hpp:77] Creating layer conv5
I0226 18:43:09.443867 32686 net.cpp:106] Creating Layer conv5
I0226 18:43:09.443871 32686 net.cpp:454] conv5 <- conv4
I0226 18:43:09.443876 32686 net.cpp:411] conv5 -> conv5
I0226 18:43:09.450229 32686 net.cpp:150] Setting up conv5
I0226 18:43:09.450239 32686 net.cpp:157] Top shape: 50 256 13 13 (2163200)
I0226 18:43:09.450242 32686 net.cpp:165] Memory required for data: 327597800
I0226 18:43:09.450250 32686 layer_factory.hpp:77] Creating layer relu5
I0226 18:43:09.450258 32686 net.cpp:106] Creating Layer relu5
I0226 18:43:09.450261 32686 net.cpp:454] relu5 <- conv5
I0226 18:43:09.450265 32686 net.cpp:397] relu5 -> conv5 (in-place)
I0226 18:43:09.450515 32686 net.cpp:150] Setting up relu5
I0226 18:43:09.450523 32686 net.cpp:157] Top shape: 50 256 13 13 (2163200)
I0226 18:43:09.450526 32686 net.cpp:165] Memory required for data: 336250600
I0226 18:43:09.450530 32686 layer_factory.hpp:77] Creating layer pool5
I0226 18:43:09.450538 32686 net.cpp:106] Creating Layer pool5
I0226 18:43:09.450541 32686 net.cpp:454] pool5 <- conv5
I0226 18:43:09.450546 32686 net.cpp:411] pool5 -> pool5
I0226 18:43:09.450582 32686 net.cpp:150] Setting up pool5
I0226 18:43:09.450587 32686 net.cpp:157] Top shape: 50 256 6 6 (460800)
I0226 18:43:09.450589 32686 net.cpp:165] Memory required for data: 338093800
I0226 18:43:09.450592 32686 layer_factory.hpp:77] Creating layer fc6
I0226 18:43:09.450601 32686 net.cpp:106] Creating Layer fc6
I0226 18:43:09.450604 32686 net.cpp:454] fc6 <- pool5
I0226 18:43:09.450608 32686 net.cpp:411] fc6 -> fc6
I0226 18:43:09.847668 32686 net.cpp:150] Setting up fc6
I0226 18:43:09.847697 32686 net.cpp:157] Top shape: 50 4096 (204800)
I0226 18:43:09.847699 32686 net.cpp:165] Memory required for data: 338913000
I0226 18:43:09.847708 32686 layer_factory.hpp:77] Creating layer relu6
I0226 18:43:09.847719 32686 net.cpp:106] Creating Layer relu6
I0226 18:43:09.847723 32686 net.cpp:454] relu6 <- fc6
I0226 18:43:09.847729 32686 net.cpp:397] relu6 -> fc6 (in-place)
I0226 18:43:09.847929 32686 net.cpp:150] Setting up relu6
I0226 18:43:09.847936 32686 net.cpp:157] Top shape: 50 4096 (204800)
I0226 18:43:09.847939 32686 net.cpp:165] Memory required for data: 339732200
I0226 18:43:09.847941 32686 layer_factory.hpp:77] Creating layer drop6
I0226 18:43:09.847954 32686 net.cpp:106] Creating Layer drop6
I0226 18:43:09.847955 32686 net.cpp:454] drop6 <- fc6
I0226 18:43:09.847959 32686 net.cpp:397] drop6 -> fc6 (in-place)
I0226 18:43:09.847985 32686 net.cpp:150] Setting up drop6
I0226 18:43:09.847990 32686 net.cpp:157] Top shape: 50 4096 (204800)
I0226 18:43:09.847991 32686 net.cpp:165] Memory required for data: 340551400
I0226 18:43:09.847995 32686 layer_factory.hpp:77] Creating layer fc7
I0226 18:43:09.848001 32686 net.cpp:106] Creating Layer fc7
I0226 18:43:09.848002 32686 net.cpp:454] fc7 <- fc6
I0226 18:43:09.848012 32686 net.cpp:411] fc7 -> fc7
I0226 18:43:10.028074 32686 net.cpp:150] Setting up fc7
I0226 18:43:10.028118 32686 net.cpp:157] Top shape: 50 4096 (204800)
I0226 18:43:10.028126 32686 net.cpp:165] Memory required for data: 341370600
I0226 18:43:10.028142 32686 layer_factory.hpp:77] Creating layer relu7
I0226 18:43:10.028162 32686 net.cpp:106] Creating Layer relu7
I0226 18:43:10.028170 32686 net.cpp:454] relu7 <- fc7
I0226 18:43:10.028182 32686 net.cpp:397] relu7 -> fc7 (in-place)
I0226 18:43:10.028584 32686 net.cpp:150] Setting up relu7
I0226 18:43:10.028594 32686 net.cpp:157] Top shape: 50 4096 (204800)
I0226 18:43:10.028596 32686 net.cpp:165] Memory required for data: 342189800
I0226 18:43:10.028599 32686 layer_factory.hpp:77] Creating layer drop7
I0226 18:43:10.028606 32686 net.cpp:106] Creating Layer drop7
I0226 18:43:10.028610 32686 net.cpp:454] drop7 <- fc7
I0226 18:43:10.028614 32686 net.cpp:397] drop7 -> fc7 (in-place)
I0226 18:43:10.028641 32686 net.cpp:150] Setting up drop7
I0226 18:43:10.028645 32686 net.cpp:157] Top shape: 50 4096 (204800)
I0226 18:43:10.028647 32686 net.cpp:165] Memory required for data: 343009000
I0226 18:43:10.028650 32686 layer_factory.hpp:77] Creating layer fc7_drop7_0_split
I0226 18:43:10.028659 32686 net.cpp:106] Creating Layer fc7_drop7_0_split
I0226 18:43:10.028662 32686 net.cpp:454] fc7_drop7_0_split <- fc7
I0226 18:43:10.028667 32686 net.cpp:411] fc7_drop7_0_split -> fc7_drop7_0_split_0
I0226 18:43:10.028676 32686 net.cpp:411] fc7_drop7_0_split -> fc7_drop7_0_split_1
I0226 18:43:10.028709 32686 net.cpp:150] Setting up fc7_drop7_0_split
I0226 18:43:10.028717 32686 net.cpp:157] Top shape: 50 4096 (204800)
I0226 18:43:10.028719 32686 net.cpp:157] Top shape: 50 4096 (204800)
I0226 18:43:10.028722 32686 net.cpp:165] Memory required for data: 344647400
I0226 18:43:10.028724 32686 layer_factory.hpp:77] Creating layer fc8_cls
I0226 18:43:10.028730 32686 net.cpp:106] Creating Layer fc8_cls
I0226 18:43:10.028733 32686 net.cpp:454] fc8_cls <- fc7_drop7_0_split_0
I0226 18:43:10.028738 32686 net.cpp:411] fc8_cls -> fc8_cls
I0226 18:43:10.030503 32686 net.cpp:150] Setting up fc8_cls
I0226 18:43:10.030511 32686 net.cpp:157] Top shape: 50 30 (1500)
I0226 18:43:10.030514 32686 net.cpp:165] Memory required for data: 344653400
I0226 18:43:10.030519 32686 layer_factory.hpp:77] Creating layer fc8_reg
I0226 18:43:10.030527 32686 net.cpp:106] Creating Layer fc8_reg
I0226 18:43:10.030530 32686 net.cpp:454] fc8_reg <- fc7_drop7_0_split_1
I0226 18:43:10.030534 32686 net.cpp:411] fc8_reg -> fc8_reg
I0226 18:43:10.031298 32686 net.cpp:150] Setting up fc8_reg
I0226 18:43:10.031307 32686 net.cpp:157] Top shape: 50 4 (200)
I0226 18:43:10.031309 32686 net.cpp:165] Memory required for data: 344654200
I0226 18:43:10.031318 32686 layer_factory.hpp:77] Creating layer cls_loss
I0226 18:43:10.031324 32686 net.cpp:106] Creating Layer cls_loss
I0226 18:43:10.031327 32686 net.cpp:454] cls_loss <- fc8_cls
I0226 18:43:10.031332 32686 net.cpp:454] cls_loss <- cls_label
I0226 18:43:10.031335 32686 net.cpp:411] cls_loss -> cls_loss
…
