…
WARNING: Logging before InitGoogleLogging() is written to STDERR
I0224 10:04:52.875903  9842 net.cpp:49] Initializing net from parameters: 
name: "FlickrStyleCaffeNet"
state {
  phase: TEST
}
layer {
  name: "data"
  type: "ImageData"
  top: "data"
  top: "label"
  include {
    phase: TEST
  }
  transform_param {
    mirror: false
    crop_size: 227
    mean_file: "/scratch/16824/models/imagenet_mean.binaryproto"
  }
  image_data_param {
    source: "/scratch/16824/data/testlist_class.txt"
    batch_size: 50
    new_height: 256
    new_width: 256
    root_folder: "/scratch/16824/data/crop_imgs/"
  }
}
layer {
  name: "conv1"
  type: "Convolution"
  bottom: "data"
  top: "conv1"
  param {
    lr_mult: 1
    decay_mult: 1
  }
  param {
    lr_mult: 2
    decay_mult: 0
  }
  convolution_param {
    num_output: 64
    kernel_size: 7
    stride: 4
    weight_filler {
      type: "gaussian"
      std: 0.01
    }
    bias_filler {
      type: "constant"
      value: 0
    }
  }
}
layer {
  name: "bn1"
  type: "BatchNorm"
  bottom: "conv1"
  top: "bn1"
  param {
    lr_mult: 0
  }
  param {
    lr_mult: 0
  }
  param {
    lr_mult: 0
  }
}
layer {
  name: "relu1"
  type: "ReLU"
  bottom: "bn1"
  top: "relu1"
}
layer {
  name: "pool1"
  type: "Pooling"
  bottom: "relu1"
  top: "pool1"
  pooling_param {
    pool: MAX
    kernel_size: 3
    stride: 2
  }
}
layer {
  name: "conv2"
  type: "Convolution"
  bottom: "pool1"
  top: "conv2"
  param {
    lr_mult: 1
    decay_mult: 1
  }
  param {
    lr_mult: 2
    decay_mult: 0
  }
  convolution_param {
    num_output: 128
    pad: 2
    kernel_size: 5
    stride: 2
    weight_filler {
      type: "gaussian"
      std: 0.01
    }
    bias_filler {
      type: "constant"
      value: 1
    }
  }
}
layer {
  name: "bn2"
  type: "BatchNorm"
  bottom: "conv2"
  top: "bn2"
  param {
    lr_mult: 0
  }
  param {
    lr_mult: 0
  }
  param {
    lr_mult: 0
  }
}
layer {
  name: "relu2"
  type: "ReLU"
  bottom: "bn2"
  top: "relu2"
}
layer {
  name: "conv3"
  type: "Convolution"
  bottom: "relu2"
  top: "conv3"
  param {
    lr_mult: 1
    decay_mult: 1
  }
  param {
    lr_mult: 2
    decay_mult: 0
  }
  convolution_param {
    num_output: 256
    pad: 1
    kernel_size: 3
    stride: 1
    weight_filler {
      type: "gaussian"
      std: 0.01
    }
    bias_filler {
      type: "constant"
      value: 1
    }
  }
}
layer {
  name: "bn3"
  type: "BatchNorm"
  bottom: "conv3"
  top: "bn3"
  param {
    lr_mult: 0
  }
  param {
    lr_mult: 0
  }
  param {
    lr_mult: 0
  }
}
layer {
  name: "relu3"
  type: "ReLU"
  bottom: "bn3"
  top: "relu3"
}
layer {
  name: "conv4"
  type: "Convolution"
  bottom: "relu3"
  top: "conv4"
  param {
    lr_mult: 1
    decay_mult: 1
  }
  param {
    lr_mult: 2
    decay_mult: 0
  }
  convolution_param {
    num_output: 128
    pad: 1
    kernel_size: 3
    stride: 1
    weight_filler {
      type: "gaussian"
      std: 0.01
    }
    bias_filler {
      type: "constant"
      value: 1
    }
  }
}
layer {
  name: "bn4"
  type: "BatchNorm"
  bottom: "conv4"
  top: "bn4"
  param {
    lr_mult: 0
  }
  param {
    lr_mult: 0
  }
  param {
    lr_mult: 0
  }
}
layer {
  name: "relu4"
  type: "ReLU"
  bottom: "bn4"
  top: "relu4"
}
layer {
  name: "pool2"
  type: "Pooling"
  bottom: "relu4"
  top: "pool2"
  pooling_param {
    pool: MAX
    kernel_size: 3
    stride: 2
  }
}
layer {
  name: "fc1"
  type: "InnerProduct"
  bottom: "pool2"
  top: "fc1"
  param {
    lr_mult: 1
    decay_mult: 1
  }
  param {
    lr_mult: 2
    decay_mult: 0
  }
  inner_product_param {
    num_output: 1024
    weight_filler {
      type: "gaussian"
      std: 0.005
    }
    bias_filler {
      type: "constant"
      value: 1
    }
  }
}
layer {
  name: "bn5"
  type: "BatchNorm"
  bottom: "fc1"
  top: "bn5"
  param {
    lr_mult: 0
  }
  param {
    lr_mult: 0
  }
  param {
    lr_mult: 0
  }
}
layer {
  name: "relu5"
  type: "ReLU"
  bottom: "bn5"
  top: "relu5"
}
layer {
  name: "fc2"
  type: "InnerProduct"
  bottom: "relu5"
  top: "fc2"
  param {
    lr_mult: 1
    decay_mult: 1
  }
  param {
    lr_mult: 2
    decay_mult: 0
  }
  inner_product_param {
    num_output: 30
    weight_filler {
      type: "gaussian"
      std: 0.005
    }
    bias_filler {
      type: "constant"
      value: 1
    }
  }
}
layer {
  name: "accuracy"
  type: "Accuracy"
  bottom: "fc2"
  bottom: "label"
  top: "accuracy"
  include {
    phase: TEST
  }
}
layer {
  name: "loss"
  type: "Softmax"
  bottom: "fc2"
  top: "loss"
}
I0224 10:04:52.876006  9842 layer_factory.hpp:77] Creating layer data
I0224 10:04:52.876026  9842 net.cpp:106] Creating Layer data
I0224 10:04:52.876032  9842 net.cpp:411] data -> data
I0224 10:04:52.876045  9842 net.cpp:411] data -> label
I0224 10:04:52.876055  9842 data_transformer.cpp:25] Loading mean file from: /scratch/16824/models/imagenet_mean.binaryproto
I0224 10:04:52.906879  9842 image_data_layer.cpp:38] Opening file /scratch/16824/data/testlist_class.txt
I0224 10:04:52.909643  9842 image_data_layer.cpp:53] A total of 9183 images.
I0224 10:04:52.911583  9842 image_data_layer.cpp:80] output data size: 50,3,227,227
I0224 10:04:52.970484  9842 net.cpp:150] Setting up data
I0224 10:04:52.970510  9842 net.cpp:157] Top shape: 50 3 227 227 (7729350)
I0224 10:04:52.970515  9842 net.cpp:157] Top shape: 50 (50)
I0224 10:04:52.970517  9842 net.cpp:165] Memory required for data: 30917600
I0224 10:04:52.970525  9842 layer_factory.hpp:77] Creating layer conv1
I0224 10:04:52.970543  9842 net.cpp:106] Creating Layer conv1
I0224 10:04:52.970547  9842 net.cpp:454] conv1 <- data
I0224 10:04:52.970554  9842 net.cpp:411] conv1 -> conv1
I0224 10:04:53.173710  9842 net.cpp:150] Setting up conv1
I0224 10:04:53.173739  9842 net.cpp:157] Top shape: 50 64 56 56 (10035200)
I0224 10:04:53.173743  9842 net.cpp:165] Memory required for data: 71058400
I0224 10:04:53.173758  9842 layer_factory.hpp:77] Creating layer bn1
I0224 10:04:53.173774  9842 net.cpp:106] Creating Layer bn1
I0224 10:04:53.173777  9842 net.cpp:454] bn1 <- conv1
I0224 10:04:53.173782  9842 net.cpp:411] bn1 -> bn1
I0224 10:04:53.173943  9842 net.cpp:150] Setting up bn1
I0224 10:04:53.173949  9842 net.cpp:157] Top shape: 50 64 56 56 (10035200)
I0224 10:04:53.173950  9842 net.cpp:165] Memory required for data: 111199200
I0224 10:04:53.173959  9842 layer_factory.hpp:77] Creating layer relu1
I0224 10:04:53.173966  9842 net.cpp:106] Creating Layer relu1
I0224 10:04:53.173969  9842 net.cpp:454] relu1 <- bn1
I0224 10:04:53.173972  9842 net.cpp:411] relu1 -> relu1
I0224 10:04:53.174221  9842 net.cpp:150] Setting up relu1
I0224 10:04:53.174231  9842 net.cpp:157] Top shape: 50 64 56 56 (10035200)
I0224 10:04:53.174233  9842 net.cpp:165] Memory required for data: 151340000
I0224 10:04:53.174237  9842 layer_factory.hpp:77] Creating layer pool1
I0224 10:04:53.174245  9842 net.cpp:106] Creating Layer pool1
I0224 10:04:53.174248  9842 net.cpp:454] pool1 <- relu1
I0224 10:04:53.174253  9842 net.cpp:411] pool1 -> pool1
I0224 10:04:53.174285  9842 net.cpp:150] Setting up pool1
I0224 10:04:53.174290  9842 net.cpp:157] Top shape: 50 64 28 28 (2508800)
I0224 10:04:53.174293  9842 net.cpp:165] Memory required for data: 161375200
I0224 10:04:53.174295  9842 layer_factory.hpp:77] Creating layer conv2
I0224 10:04:53.174304  9842 net.cpp:106] Creating Layer conv2
I0224 10:04:53.174306  9842 net.cpp:454] conv2 <- pool1
I0224 10:04:53.174310  9842 net.cpp:411] conv2 -> conv2
I0224 10:04:53.177356  9842 net.cpp:150] Setting up conv2
I0224 10:04:53.177367  9842 net.cpp:157] Top shape: 50 128 14 14 (1254400)
I0224 10:04:53.177371  9842 net.cpp:165] Memory required for data: 166392800
I0224 10:04:53.177376  9842 layer_factory.hpp:77] Creating layer bn2
I0224 10:04:53.177381  9842 net.cpp:106] Creating Layer bn2
I0224 10:04:53.177384  9842 net.cpp:454] bn2 <- conv2
I0224 10:04:53.177389  9842 net.cpp:411] bn2 -> bn2
I0224 10:04:53.177549  9842 net.cpp:150] Setting up bn2
I0224 10:04:53.177554  9842 net.cpp:157] Top shape: 50 128 14 14 (1254400)
I0224 10:04:53.177561  9842 net.cpp:165] Memory required for data: 171410400
I0224 10:04:53.177568  9842 layer_factory.hpp:77] Creating layer relu2
I0224 10:04:53.177574  9842 net.cpp:106] Creating Layer relu2
I0224 10:04:53.177577  9842 net.cpp:454] relu2 <- bn2
I0224 10:04:53.177580  9842 net.cpp:411] relu2 -> relu2
I0224 10:04:53.177742  9842 net.cpp:150] Setting up relu2
I0224 10:04:53.177750  9842 net.cpp:157] Top shape: 50 128 14 14 (1254400)
I0224 10:04:53.177752  9842 net.cpp:165] Memory required for data: 176428000
I0224 10:04:53.177755  9842 layer_factory.hpp:77] Creating layer conv3
I0224 10:04:53.177764  9842 net.cpp:106] Creating Layer conv3
I0224 10:04:53.177772  9842 net.cpp:454] conv3 <- relu2
I0224 10:04:53.177779  9842 net.cpp:411] conv3 -> conv3
I0224 10:04:53.181848  9842 net.cpp:150] Setting up conv3
I0224 10:04:53.181859  9842 net.cpp:157] Top shape: 50 256 14 14 (2508800)
I0224 10:04:53.181860  9842 net.cpp:165] Memory required for data: 186463200
I0224 10:04:53.181869  9842 layer_factory.hpp:77] Creating layer bn3
I0224 10:04:53.181874  9842 net.cpp:106] Creating Layer bn3
I0224 10:04:53.181876  9842 net.cpp:454] bn3 <- conv3
I0224 10:04:53.181881  9842 net.cpp:411] bn3 -> bn3
I0224 10:04:53.182039  9842 net.cpp:150] Setting up bn3
I0224 10:04:53.182044  9842 net.cpp:157] Top shape: 50 256 14 14 (2508800)
I0224 10:04:53.182046  9842 net.cpp:165] Memory required for data: 196498400
I0224 10:04:53.182052  9842 layer_factory.hpp:77] Creating layer relu3
I0224 10:04:53.182056  9842 net.cpp:106] Creating Layer relu3
I0224 10:04:53.182060  9842 net.cpp:454] relu3 <- bn3
I0224 10:04:53.182065  9842 net.cpp:411] relu3 -> relu3
I0224 10:04:53.182231  9842 net.cpp:150] Setting up relu3
I0224 10:04:53.182238  9842 net.cpp:157] Top shape: 50 256 14 14 (2508800)
I0224 10:04:53.182240  9842 net.cpp:165] Memory required for data: 206533600
I0224 10:04:53.182243  9842 layer_factory.hpp:77] Creating layer conv4
I0224 10:04:53.182252  9842 net.cpp:106] Creating Layer conv4
I0224 10:04:53.182255  9842 net.cpp:454] conv4 <- relu3
I0224 10:04:53.182260  9842 net.cpp:411] conv4 -> conv4
I0224 10:04:53.186251  9842 net.cpp:150] Setting up conv4
I0224 10:04:53.186261  9842 net.cpp:157] Top shape: 50 128 14 14 (1254400)
I0224 10:04:53.186264  9842 net.cpp:165] Memory required for data: 211551200
I0224 10:04:53.186272  9842 layer_factory.hpp:77] Creating layer bn4
I0224 10:04:53.186280  9842 net.cpp:106] Creating Layer bn4
I0224 10:04:53.186282  9842 net.cpp:454] bn4 <- conv4
I0224 10:04:53.186288  9842 net.cpp:411] bn4 -> bn4
I0224 10:04:53.186453  9842 net.cpp:150] Setting up bn4
I0224 10:04:53.186458  9842 net.cpp:157] Top shape: 50 128 14 14 (1254400)
I0224 10:04:53.186461  9842 net.cpp:165] Memory required for data: 216568800
I0224 10:04:53.186466  9842 layer_factory.hpp:77] Creating layer relu4
I0224 10:04:53.186470  9842 net.cpp:106] Creating Layer relu4
I0224 10:04:53.186473  9842 net.cpp:454] relu4 <- bn4
I0224 10:04:53.186477  9842 net.cpp:411] relu4 -> relu4
I0224 10:04:53.186731  9842 net.cpp:150] Setting up relu4
I0224 10:04:53.186740  9842 net.cpp:157] Top shape: 50 128 14 14 (1254400)
I0224 10:04:53.186743  9842 net.cpp:165] Memory required for data: 221586400
I0224 10:04:53.186745  9842 layer_factory.hpp:77] Creating layer pool2
I0224 10:04:53.186750  9842 net.cpp:106] Creating Layer pool2
I0224 10:04:53.186753  9842 net.cpp:454] pool2 <- relu4
I0224 10:04:53.186759  9842 net.cpp:411] pool2 -> pool2
I0224 10:04:53.186796  9842 net.cpp:150] Setting up pool2
I0224 10:04:53.186801  9842 net.cpp:157] Top shape: 50 128 7 7 (313600)
I0224 10:04:53.186803  9842 net.cpp:165] Memory required for data: 222840800
I0224 10:04:53.186805  9842 layer_factory.hpp:77] Creating layer fc1
I0224 10:04:53.186813  9842 net.cpp:106] Creating Layer fc1
I0224 10:04:53.186815  9842 net.cpp:454] fc1 <- pool2
I0224 10:04:53.186821  9842 net.cpp:411] fc1 -> fc1
I0224 10:04:53.255753  9842 net.cpp:150] Setting up fc1
I0224 10:04:53.255779  9842 net.cpp:157] Top shape: 50 1024 (51200)
I0224 10:04:53.255784  9842 net.cpp:165] Memory required for data: 223045600
I0224 10:04:53.255795  9842 layer_factory.hpp:77] Creating layer bn5
I0224 10:04:53.255812  9842 net.cpp:106] Creating Layer bn5
I0224 10:04:53.255816  9842 net.cpp:454] bn5 <- fc1
I0224 10:04:53.255823  9842 net.cpp:411] bn5 -> bn5
I0224 10:04:53.255982  9842 net.cpp:150] Setting up bn5
I0224 10:04:53.255987  9842 net.cpp:157] Top shape: 50 1024 (51200)
I0224 10:04:53.255990  9842 net.cpp:165] Memory required for data: 223250400
I0224 10:04:53.255995  9842 layer_factory.hpp:77] Creating layer relu5
I0224 10:04:53.256000  9842 net.cpp:106] Creating Layer relu5
I0224 10:04:53.256002  9842 net.cpp:454] relu5 <- bn5
I0224 10:04:53.256006  9842 net.cpp:411] relu5 -> relu5
I0224 10:04:53.256213  9842 net.cpp:150] Setting up relu5
I0224 10:04:53.256220  9842 net.cpp:157] Top shape: 50 1024 (51200)
I0224 10:04:53.256223  9842 net.cpp:165] Memory required for data: 223455200
I0224 10:04:53.256225  9842 layer_factory.hpp:77] Creating layer fc2
I0224 10:04:53.256232  9842 net.cpp:106] Creating Layer fc2
I0224 10:04:53.256235  9842 net.cpp:454] fc2 <- relu5
I0224 10:04:53.256240  9842 net.cpp:411] fc2 -> fc2
I0224 10:04:53.257109  9842 net.cpp:150] Setting up fc2
I0224 10:04:53.257118  9842 net.cpp:157] Top shape: 50 30 (1500)
I0224 10:04:53.257120  9842 net.cpp:165] Memory required for data: 223461200
I0224 10:04:53.257127  9842 layer_factory.hpp:77] Creating layer fc2_fc2_0_split
I0224 10:04:53.257134  9842 net.cpp:106] Creating Layer fc2_fc2_0_split
I0224 10:04:53.257138  9842 net.cpp:454] fc2_fc2_0_split <- fc2
I0224 10:04:53.257141  9842 net.cpp:411] fc2_fc2_0_split -> fc2_fc2_0_split_0
I0224 10:04:53.257148  9842 net.cpp:411] fc2_fc2_0_split -> fc2_fc2_0_split_1
I0224 10:04:53.257179  9842 net.cpp:150] Setting up fc2_fc2_0_split
I0224 10:04:53.257184  9842 net.cpp:157] Top shape: 50 30 (1500)
I0224 10:04:53.257186  9842 net.cpp:157] Top shape: 50 30 (1500)
I0224 10:04:53.257189  9842 net.cpp:165] Memory required for data: 223473200
I0224 10:04:53.257191  9842 layer_factory.hpp:77] Creating layer accuracy
I0224 10:04:53.257200  9842 net.cpp:106] Creating Layer accuracy
I0224 10:04:53.257201  9842 net.cpp:454] accuracy <- fc2_fc2_0_split_0
I0224 10:04:53.257205  9842 net.cpp:454] accuracy <- label
I0224 10:04:53.257208  9842 net.cpp:411] accuracy -> accuracy
I0224 10:04:53.257215  9842 net.cpp:150] Setting up accuracy
I0224 10:04:53.257220  9842 net.cpp:157] Top shape: (1)
I0224 10:04:53.257222  9842 net.cpp:165] Memory required for data: 223473204
I0224 10:04:53.257225  9842 layer_factory.hpp:77] Creating layer loss
I0224 10:04:53.257230  9842 net.cpp:106] Creating Layer loss
I0224 10:04:53.257231  9842 net.cpp:454] loss <- fc2_fc2_0_split_1
I0224 10:04:53.257235  9842 net.cpp:411] loss -> loss
I0224 10:04:53.257532  9842 net.cpp:150] Setting up loss
I0224 10:04:53.257541  9842 net.cpp:157] Top shape: 50 30 (1500)
I0224 10:04:53.257544  9842 net.cpp:165] Memory required for data: 223479204
I0224 10:04:53.257547  9842 net.cpp:228] loss does not need backward computation.
I0224 10:04:53.257550  9842 net.cpp:228] accuracy does not need backward computation.
I0224 10:04:53.257552  9842 net.cpp:228] fc2_fc2_0_split does not need backward computation.
I0224 10:04:53.257555  9842 net.cpp:228] fc2 does not need backward computation.
…
