…
I0225 00:21:16.657423 77809 net.cpp:49] Initializing net from parameters: 
name: "FlickrStyleCaffeNet"
state {
  phase: TRAIN
}
layer {
  name: "data"
  type: "ImageData"
  top: "data"
  top: "label"
  include {
    phase: TRAIN
  }
  transform_param {
    mirror: true
    crop_size: 227
    mean_file: "/scratch/16824/models/imagenet_mean.binaryproto"
  }
  image_data_param {
    source: "/scratch/16824/data/trainlist_class.txt"
    batch_size: 50
    shuffle: true
    new_height: 256
    new_width: 256
    root_folder: "/scratch/16824/data/crop_imgs/"
  }
}
layer {
  name: "conv1"
  type: "Convolution"
  bottom: "data"
  top: "conv1"
  param {
    lr_mult: 1
    decay_mult: 1
  }
  param {
    lr_mult: 2
    decay_mult: 0
  }
  convolution_param {
    num_output: 64
    kernel_size: 7
    stride: 4
    weight_filler {
      type: "gaussian"
      std: 0.01
    }
    bias_filler {
      type: "constant"
      value: 0
    }
  }
}
layer {
  name: "bn1"
  type: "BatchNorm"
  bottom: "conv1"
  top: "bn1"
  param {
    lr_mult: 0
  }
  param {
    lr_mult: 0
  }
  param {
    lr_mult: 0
  }
}
layer {
  name: "relu1"
  type: "ReLU"
  bottom: "bn1"
  top: "relu1"
}
layer {
  name: "pool1"
  type: "Pooling"
  bottom: "relu1"
  top: "pool1"
  pooling_param {
    pool: MAX
    kernel_size: 3
    stride: 2
  }
}
layer {
  name: "conv2"
  type: "Convolution"
  bottom: "pool1"
  top: "conv2"
  param {
    lr_mult: 1
    decay_mult: 1
  }
  param {
    lr_mult: 2
    decay_mult: 0
  }
  convolution_param {
    num_output: 128
    pad: 2
    kernel_size: 5
    stride: 2
    weight_filler {
      type: "gaussian"
      std: 0.01
    }
    bias_filler {
      type: "constant"
      value: 1
    }
  }
}
layer {
  name: "bn2"
  type: "BatchNorm"
  bottom: "conv2"
  top: "bn2"
  param {
    lr_mult: 0
  }
  param {
    lr_mult: 0
  }
  param {
    lr_mult: 0
  }
}
layer {
  name: "relu2"
  type: "ReLU"
  bottom: "bn2"
  top: "relu2"
}
layer {
  name: "conv3"
  type: "Convolution"
  bottom: "relu2"
  top: "conv3"
  param {
    lr_mult: 1
    decay_mult: 1
  }
  param {
    lr_mult: 2
    decay_mult: 0
  }
  convolution_param {
    num_output: 256
    pad: 1
    kernel_size: 3
    stride: 1
    weight_filler {
      type: "gaussian"
      std: 0.01
    }
    bias_filler {
      type: "constant"
      value: 1
    }
  }
}
layer {
  name: "bn3"
  type: "BatchNorm"
  bottom: "conv3"
  top: "bn3"
  param {
    lr_mult: 0
  }
  param {
    lr_mult: 0
  }
  param {
    lr_mult: 0
  }
}
layer {
  name: "relu3"
  type: "ReLU"
  bottom: "bn3"
  top: "relu3"
}
layer {
  name: "conv4"
  type: "Convolution"
  bottom: "relu3"
  top: "conv4"
  param {
    lr_mult: 1
    decay_mult: 1
  }
  param {
    lr_mult: 2
    decay_mult: 0
  }
  convolution_param {
    num_output: 128
    pad: 1
    kernel_size: 3
    stride: 1
    weight_filler {
      type: "gaussian"
      std: 0.01
    }
    bias_filler {
      type: "constant"
      value: 1
    }
  }
}
layer {
  name: "bn4"
  type: "BatchNorm"
  bottom: "conv4"
  top: "bn4"
  param {
    lr_mult: 0
  }
  param {
    lr_mult: 0
  }
  param {
    lr_mult: 0
  }
}
layer {
  name: "relu4"
  type: "ReLU"
  bottom: "bn4"
  top: "relu4"
}
layer {
  name: "pool2"
  type: "Pooling"
  bottom: "relu4"
  top: "pool2"
  pooling_param {
    pool: MAX
    kernel_size: 3
    stride: 2
  }
}
layer {
  name: "fc1"
  type: "InnerProduct"
  bottom: "pool2"
  top: "fc1"
  param {
    lr_mult: 1
    decay_mult: 1
  }
  param {
    lr_mult: 2
    decay_mult: 0
  }
  inner_product_param {
    num_output: 1024
    weight_filler {
      type: "gaussian"
      std: 0.005
    }
    bias_filler {
      type: "constant"
      value: 1
    }
  }
}
layer {
  name: "bn5"
  type: "BatchNorm"
  bottom: "fc1"
  top: "bn5"
  param {
    lr_mult: 0
  }
  param {
    lr_mult: 0
  }
  param {
    lr_mult: 0
  }
}
layer {
  name: "relu5"
  type: "ReLU"
  bottom: "bn5"
  top: "relu5"
}
layer {
  name: "fc2"
  type: "InnerProduct"
  bottom: "relu5"
  top: "fc2"
  param {
    lr_mult: 1
    decay_mult: 1
  }
  param {
    lr_mult: 2
    decay_mult: 0
  }
  inner_product_param {
    num_output: 30
    weight_filler {
      type: "gaussian"
      std: 0.005
    }
    bias_filler {
      type: "constant"
      value: 1
    }
  }
}
layer {
  name: "loss"
  type: "SoftmaxWithLoss"
  bottom: "fc2"
  bottom: "label"
  top: "loss"
}
I0225 00:21:16.657490 77809 layer_factory.hpp:77] Creating layer data
I0225 00:21:16.657507 77809 net.cpp:106] Creating Layer data
I0225 00:21:16.657512 77809 net.cpp:411] data -> data
I0225 00:21:16.657524 77809 net.cpp:411] data -> label
I0225 00:21:16.657533 77809 data_transformer.cpp:25] Loading mean file from: /scratch/16824/models/imagenet_mean.binaryproto
I0225 00:21:16.679507 77809 image_data_layer.cpp:38] Opening file /scratch/16824/data/trainlist_class.txt
I0225 00:21:16.727346 77809 image_data_layer.cpp:48] Shuffling data
I0225 00:21:16.729571 77809 image_data_layer.cpp:53] A total of 36752 images.
I0225 00:21:16.737586 77809 image_data_layer.cpp:80] output data size: 50,3,227,227
I0225 00:21:16.792471 77809 net.cpp:150] Setting up data
I0225 00:21:16.792513 77809 net.cpp:157] Top shape: 50 3 227 227 (7729350)
I0225 00:21:16.792520 77809 net.cpp:157] Top shape: 50 (50)
I0225 00:21:16.792521 77809 net.cpp:165] Memory required for data: 30917600
I0225 00:21:16.792531 77809 layer_factory.hpp:77] Creating layer conv1
I0225 00:21:16.792557 77809 net.cpp:106] Creating Layer conv1
I0225 00:21:16.792562 77809 net.cpp:454] conv1 <- data
I0225 00:21:16.792572 77809 net.cpp:411] conv1 -> conv1
I0225 00:21:16.946424 77809 net.cpp:150] Setting up conv1
I0225 00:21:16.946455 77809 net.cpp:157] Top shape: 50 64 56 56 (10035200)
I0225 00:21:16.946460 77809 net.cpp:165] Memory required for data: 71058400
I0225 00:21:16.946480 77809 layer_factory.hpp:77] Creating layer bn1
I0225 00:21:16.946498 77809 net.cpp:106] Creating Layer bn1
I0225 00:21:16.946503 77809 net.cpp:454] bn1 <- conv1
I0225 00:21:16.946511 77809 net.cpp:411] bn1 -> bn1
I0225 00:21:16.946682 77809 net.cpp:150] Setting up bn1
I0225 00:21:16.946688 77809 net.cpp:157] Top shape: 50 64 56 56 (10035200)
I0225 00:21:16.946691 77809 net.cpp:165] Memory required for data: 111199200
I0225 00:21:16.946701 77809 layer_factory.hpp:77] Creating layer relu1
I0225 00:21:16.946709 77809 net.cpp:106] Creating Layer relu1
I0225 00:21:16.946713 77809 net.cpp:454] relu1 <- bn1
I0225 00:21:16.946717 77809 net.cpp:411] relu1 -> relu1
I0225 00:21:16.946977 77809 net.cpp:150] Setting up relu1
I0225 00:21:16.946988 77809 net.cpp:157] Top shape: 50 64 56 56 (10035200)
I0225 00:21:16.946991 77809 net.cpp:165] Memory required for data: 151340000
I0225 00:21:16.946995 77809 layer_factory.hpp:77] Creating layer pool1
I0225 00:21:16.947005 77809 net.cpp:106] Creating Layer pool1
I0225 00:21:16.947008 77809 net.cpp:454] pool1 <- relu1
I0225 00:21:16.947016 77809 net.cpp:411] pool1 -> pool1
I0225 00:21:16.947059 77809 net.cpp:150] Setting up pool1
I0225 00:21:16.947064 77809 net.cpp:157] Top shape: 50 64 28 28 (2508800)
I0225 00:21:16.947067 77809 net.cpp:165] Memory required for data: 161375200
I0225 00:21:16.947069 77809 layer_factory.hpp:77] Creating layer conv2
I0225 00:21:16.947083 77809 net.cpp:106] Creating Layer conv2
I0225 00:21:16.947085 77809 net.cpp:454] conv2 <- pool1
I0225 00:21:16.947096 77809 net.cpp:411] conv2 -> conv2
I0225 00:21:16.950289 77809 net.cpp:150] Setting up conv2
I0225 00:21:16.950299 77809 net.cpp:157] Top shape: 50 128 14 14 (1254400)
I0225 00:21:16.950302 77809 net.cpp:165] Memory required for data: 166392800
I0225 00:21:16.950309 77809 layer_factory.hpp:77] Creating layer bn2
I0225 00:21:16.950316 77809 net.cpp:106] Creating Layer bn2
I0225 00:21:16.950320 77809 net.cpp:454] bn2 <- conv2
I0225 00:21:16.950325 77809 net.cpp:411] bn2 -> bn2
I0225 00:21:16.950474 77809 net.cpp:150] Setting up bn2
I0225 00:21:16.950480 77809 net.cpp:157] Top shape: 50 128 14 14 (1254400)
I0225 00:21:16.950482 77809 net.cpp:165] Memory required for data: 171410400
I0225 00:21:16.950490 77809 layer_factory.hpp:77] Creating layer relu2
I0225 00:21:16.950496 77809 net.cpp:106] Creating Layer relu2
I0225 00:21:16.950498 77809 net.cpp:454] relu2 <- bn2
I0225 00:21:16.950505 77809 net.cpp:411] relu2 -> relu2
I0225 00:21:16.950665 77809 net.cpp:150] Setting up relu2
I0225 00:21:16.950672 77809 net.cpp:157] Top shape: 50 128 14 14 (1254400)
I0225 00:21:16.950675 77809 net.cpp:165] Memory required for data: 176428000
I0225 00:21:16.950678 77809 layer_factory.hpp:77] Creating layer conv3
I0225 00:21:16.950692 77809 net.cpp:106] Creating Layer conv3
I0225 00:21:16.950695 77809 net.cpp:454] conv3 <- relu2
I0225 00:21:16.950700 77809 net.cpp:411] conv3 -> conv3
I0225 00:21:16.954803 77809 net.cpp:150] Setting up conv3
I0225 00:21:16.954814 77809 net.cpp:157] Top shape: 50 256 14 14 (2508800)
I0225 00:21:16.954818 77809 net.cpp:165] Memory required for data: 186463200
I0225 00:21:16.954823 77809 layer_factory.hpp:77] Creating layer bn3
I0225 00:21:16.954831 77809 net.cpp:106] Creating Layer bn3
I0225 00:21:16.954834 77809 net.cpp:454] bn3 <- conv3
I0225 00:21:16.954839 77809 net.cpp:411] bn3 -> bn3
I0225 00:21:16.954998 77809 net.cpp:150] Setting up bn3
I0225 00:21:16.955003 77809 net.cpp:157] Top shape: 50 256 14 14 (2508800)
I0225 00:21:16.955006 77809 net.cpp:165] Memory required for data: 196498400
I0225 00:21:16.955013 77809 layer_factory.hpp:77] Creating layer relu3
I0225 00:21:16.955019 77809 net.cpp:106] Creating Layer relu3
I0225 00:21:16.955021 77809 net.cpp:454] relu3 <- bn3
I0225 00:21:16.955025 77809 net.cpp:411] relu3 -> relu3
I0225 00:21:16.955282 77809 net.cpp:150] Setting up relu3
I0225 00:21:16.955294 77809 net.cpp:157] Top shape: 50 256 14 14 (2508800)
I0225 00:21:16.955297 77809 net.cpp:165] Memory required for data: 206533600
I0225 00:21:16.955301 77809 layer_factory.hpp:77] Creating layer conv4
I0225 00:21:16.955310 77809 net.cpp:106] Creating Layer conv4
I0225 00:21:16.955313 77809 net.cpp:454] conv4 <- relu3
I0225 00:21:16.955318 77809 net.cpp:411] conv4 -> conv4
I0225 00:21:16.959314 77809 net.cpp:150] Setting up conv4
I0225 00:21:16.959324 77809 net.cpp:157] Top shape: 50 128 14 14 (1254400)
I0225 00:21:16.959327 77809 net.cpp:165] Memory required for data: 211551200
I0225 00:21:16.959337 77809 layer_factory.hpp:77] Creating layer bn4
I0225 00:21:16.959345 77809 net.cpp:106] Creating Layer bn4
I0225 00:21:16.959348 77809 net.cpp:454] bn4 <- conv4
I0225 00:21:16.959352 77809 net.cpp:411] bn4 -> bn4
I0225 00:21:16.959503 77809 net.cpp:150] Setting up bn4
I0225 00:21:16.959509 77809 net.cpp:157] Top shape: 50 128 14 14 (1254400)
I0225 00:21:16.959511 77809 net.cpp:165] Memory required for data: 216568800
I0225 00:21:16.959517 77809 layer_factory.hpp:77] Creating layer relu4
I0225 00:21:16.959523 77809 net.cpp:106] Creating Layer relu4
I0225 00:21:16.959527 77809 net.cpp:454] relu4 <- bn4
I0225 00:21:16.959530 77809 net.cpp:411] relu4 -> relu4
I0225 00:21:16.959779 77809 net.cpp:150] Setting up relu4
I0225 00:21:16.959789 77809 net.cpp:157] Top shape: 50 128 14 14 (1254400)
I0225 00:21:16.959791 77809 net.cpp:165] Memory required for data: 221586400
I0225 00:21:16.959794 77809 layer_factory.hpp:77] Creating layer pool2
I0225 00:21:16.959802 77809 net.cpp:106] Creating Layer pool2
I0225 00:21:16.959805 77809 net.cpp:454] pool2 <- relu4
I0225 00:21:16.959813 77809 net.cpp:411] pool2 -> pool2
I0225 00:21:16.959846 77809 net.cpp:150] Setting up pool2
I0225 00:21:16.959851 77809 net.cpp:157] Top shape: 50 128 7 7 (313600)
I0225 00:21:16.959853 77809 net.cpp:165] Memory required for data: 222840800
I0225 00:21:16.959856 77809 layer_factory.hpp:77] Creating layer fc1
I0225 00:21:16.959867 77809 net.cpp:106] Creating Layer fc1
I0225 00:21:16.959869 77809 net.cpp:454] fc1 <- pool2
I0225 00:21:16.959873 77809 net.cpp:411] fc1 -> fc1
I0225 00:21:17.029623 77809 net.cpp:150] Setting up fc1
I0225 00:21:17.029654 77809 net.cpp:157] Top shape: 50 1024 (51200)
I0225 00:21:17.029656 77809 net.cpp:165] Memory required for data: 223045600
I0225 00:21:17.029667 77809 layer_factory.hpp:77] Creating layer bn5
I0225 00:21:17.029685 77809 net.cpp:106] Creating Layer bn5
I0225 00:21:17.029690 77809 net.cpp:454] bn5 <- fc1
I0225 00:21:17.029700 77809 net.cpp:411] bn5 -> bn5
I0225 00:21:17.029866 77809 net.cpp:150] Setting up bn5
I0225 00:21:17.029872 77809 net.cpp:157] Top shape: 50 1024 (51200)
I0225 00:21:17.029875 77809 net.cpp:165] Memory required for data: 223250400
I0225 00:21:17.029881 77809 layer_factory.hpp:77] Creating layer relu5
I0225 00:21:17.029888 77809 net.cpp:106] Creating Layer relu5
I0225 00:21:17.029891 77809 net.cpp:454] relu5 <- bn5
I0225 00:21:17.029896 77809 net.cpp:411] relu5 -> relu5
I0225 00:21:17.030251 77809 net.cpp:150] Setting up relu5
I0225 00:21:17.030261 77809 net.cpp:157] Top shape: 50 1024 (51200)
I0225 00:21:17.030263 77809 net.cpp:165] Memory required for data: 223455200
I0225 00:21:17.030267 77809 layer_factory.hpp:77] Creating layer fc2
I0225 00:21:17.030278 77809 net.cpp:106] Creating Layer fc2
I0225 00:21:17.030282 77809 net.cpp:454] fc2 <- relu5
I0225 00:21:17.030287 77809 net.cpp:411] fc2 -> fc2
I0225 00:21:17.031191 77809 net.cpp:150] Setting up fc2
I0225 00:21:17.031201 77809 net.cpp:157] Top shape: 50 30 (1500)
I0225 00:21:17.031203 77809 net.cpp:165] Memory required for data: 223461200
I0225 00:21:17.031209 77809 layer_factory.hpp:77] Creating layer loss
I0225 00:21:17.031221 77809 net.cpp:106] Creating Layer loss
I0225 00:21:17.031225 77809 net.cpp:454] loss <- fc2
I0225 00:21:17.031229 77809 net.cpp:454] loss <- label
I0225 00:21:17.031235 77809 net.cpp:411] loss -> loss
I0225 00:21:17.031245 77809 layer_factory.hpp:77] Creating layer loss
…
I0225 00:21:17.032357 77809 net.cpp:322] The NetState phase (1) differed from the phase (0) specified by a rule in layer data
I0225 00:21:17.032500 77809 net.cpp:49] Initializing net from parameters: 
name: "FlickrStyleCaffeNet"
state {
  phase: TEST
}
layer {
  name: "data"
  type: "ImageData"
  top: "data"
  top: "label"
  include {
    phase: TEST
  }
  transform_param {
    mirror: false
    crop_size: 227
    mean_file: "/scratch/16824/models/imagenet_mean.binaryproto"
  }
  image_data_param {
    source: "/scratch/16824/data/testlist_class.txt"
    batch_size: 50
    new_height: 256
    new_width: 256
    root_folder: "/scratch/16824/data/crop_imgs/"
  }
}
layer {
  name: "conv1"
  type: "Convolution"
  bottom: "data"
  top: "conv1"
  param {
    lr_mult: 1
    decay_mult: 1
  }
  param {
    lr_mult: 2
    decay_mult: 0
  }
  convolution_param {
    num_output: 64
    kernel_size: 7
    stride: 4
    weight_filler {
      type: "gaussian"
      std: 0.01
    }
    bias_filler {
      type: "constant"
      value: 0
    }
  }
}
layer {
  name: "bn1"
  type: "BatchNorm"
  bottom: "conv1"
  top: "bn1"
  param {
    lr_mult: 0
  }
  param {
    lr_mult: 0
  }
  param {
    lr_mult: 0
  }
}
layer {
  name: "relu1"
  type: "ReLU"
  bottom: "bn1"
  top: "relu1"
}
layer {
  name: "pool1"
  type: "Pooling"
  bottom: "relu1"
  top: "pool1"
  pooling_param {
    pool: MAX
    kernel_size: 3
    stride: 2
  }
}
layer {
  name: "conv2"
  type: "Convolution"
  bottom: "pool1"
  top: "conv2"
  param {
    lr_mult: 1
    decay_mult: 1
  }
  param {
    lr_mult: 2
    decay_mult: 0
  }
  convolution_param {
    num_output: 128
    pad: 2
    kernel_size: 5
    stride: 2
    weight_filler {
      type: "gaussian"
      std: 0.01
    }
    bias_filler {
      type: "constant"
      value: 1
    }
  }
}
layer {
  name: "bn2"
  type: "BatchNorm"
  bottom: "conv2"
  top: "bn2"
  param {
    lr_mult: 0
  }
  param {
    lr_mult: 0
  }
  param {
    lr_mult: 0
  }
}
layer {
  name: "relu2"
  type: "ReLU"
  bottom: "bn2"
  top: "relu2"
}
layer {
  name: "conv3"
  type: "Convolution"
  bottom: "relu2"
  top: "conv3"
  param {
    lr_mult: 1
    decay_mult: 1
  }
  param {
    lr_mult: 2
    decay_mult: 0
  }
  convolution_param {
    num_output: 256
    pad: 1
    kernel_size: 3
    stride: 1
    weight_filler {
      type: "gaussian"
      std: 0.01
    }
    bias_filler {
      type: "constant"
      value: 1
    }
  }
}
layer {
  name: "bn3"
  type: "BatchNorm"
  bottom: "conv3"
  top: "bn3"
  param {
    lr_mult: 0
  }
  param {
    lr_mult: 0
  }
  param {
    lr_mult: 0
  }
}
layer {
  name: "relu3"
  type: "ReLU"
  bottom: "bn3"
  top: "relu3"
}
layer {
  name: "conv4"
  type: "Convolution"
  bottom: "relu3"
  top: "conv4"
  param {
    lr_mult: 1
    decay_mult: 1
  }
  param {
    lr_mult: 2
    decay_mult: 0
  }
  convolution_param {
    num_output: 128
    pad: 1
    kernel_size: 3
    stride: 1
    weight_filler {
      type: "gaussian"
      std: 0.01
    }
    bias_filler {
      type: "constant"
      value: 1
    }
  }
}
layer {
  name: "bn4"
  type: "BatchNorm"
  bottom: "conv4"
  top: "bn4"
  param {
    lr_mult: 0
  }
  param {
    lr_mult: 0
  }
  param {
    lr_mult: 0
  }
}
layer {
  name: "relu4"
  type: "ReLU"
  bottom: "bn4"
  top: "relu4"
}
layer {
  name: "pool2"
  type: "Pooling"
  bottom: "relu4"
  top: "pool2"
  pooling_param {
    pool: MAX
    kernel_size: 3
    stride: 2
  }
}
layer {
  name: "fc1"
  type: "InnerProduct"
  bottom: "pool2"
  top: "fc1"
  param {
    lr_mult: 1
    decay_mult: 1
  }
  param {
    lr_mult: 2
    decay_mult: 0
  }
  inner_product_param {
    num_output: 1024
    weight_filler {
      type: "gaussian"
      std: 0.005
    }
    bias_filler {
      type: "constant"
      value: 1
    }
  }
}
layer {
  name: "bn5"
  type: "BatchNorm"
  bottom: "fc1"
  top: "bn5"
  param {
    lr_mult: 0
  }
  param {
    lr_mult: 0
  }
  param {
    lr_mult: 0
  }
}
layer {
  name: "relu5"
  type: "ReLU"
  bottom: "bn5"
  top: "relu5"
}
layer {
  name: "fc2"
  type: "InnerProduct"
  bottom: "relu5"
  top: "fc2"
  param {
    lr_mult: 1
    decay_mult: 1
  }
  param {
    lr_mult: 2
    decay_mult: 0
  }
  inner_product_param {
    num_output: 30
    weight_filler {
      type: "gaussian"
      std: 0.005
    }
    bias_filler {
      type: "constant"
      value: 1
    }
  }
}
layer {
  name: "accuracy"
  type: "Accuracy"
  bottom: "fc2"
  bottom: "label"
  top: "accuracy"
  include {
    phase: TEST
  }
}
layer {
  name: "loss"
  type: "SoftmaxWithLoss"
  bottom: "fc2"
  bottom: "label"
  top: "loss"
}
I0225 00:21:17.032593 77809 layer_factory.hpp:77] Creating layer data
I0225 00:21:17.032606 77809 net.cpp:106] Creating Layer data
I0225 00:21:17.032610 77809 net.cpp:411] data -> data
I0225 00:21:17.032619 77809 net.cpp:411] data -> label
I0225 00:21:17.032625 77809 data_transformer.cpp:25] Loading mean file from: /scratch/16824/models/imagenet_mean.binaryproto
I0225 00:21:17.035012 77809 image_data_layer.cpp:38] Opening file /scratch/16824/data/testlist_class.txt
I0225 00:21:17.070739 77809 image_data_layer.cpp:53] A total of 9183 images.
I0225 00:21:17.078342 77809 image_data_layer.cpp:80] output data size: 50,3,227,227
I0225 00:21:17.137413 77809 net.cpp:150] Setting up data
I0225 00:21:17.137439 77809 net.cpp:157] Top shape: 50 3 227 227 (7729350)
I0225 00:21:17.137444 77809 net.cpp:157] Top shape: 50 (50)
I0225 00:21:17.137446 77809 net.cpp:165] Memory required for data: 30917600
I0225 00:21:17.137452 77809 layer_factory.hpp:77] Creating layer label_data_1_split
I0225 00:21:17.137467 77809 net.cpp:106] Creating Layer label_data_1_split
I0225 00:21:17.137471 77809 net.cpp:454] label_data_1_split <- label
I0225 00:21:17.137477 77809 net.cpp:411] label_data_1_split -> label_data_1_split_0
I0225 00:21:17.137491 77809 net.cpp:411] label_data_1_split -> label_data_1_split_1
I0225 00:21:17.137603 77809 net.cpp:150] Setting up label_data_1_split
I0225 00:21:17.137608 77809 net.cpp:157] Top shape: 50 (50)
I0225 00:21:17.137610 77809 net.cpp:157] Top shape: 50 (50)
I0225 00:21:17.137612 77809 net.cpp:165] Memory required for data: 30918000
I0225 00:21:17.137615 77809 layer_factory.hpp:77] Creating layer conv1
I0225 00:21:17.137626 77809 net.cpp:106] Creating Layer conv1
I0225 00:21:17.137629 77809 net.cpp:454] conv1 <- data
I0225 00:21:17.137634 77809 net.cpp:411] conv1 -> conv1
I0225 00:21:17.138794 77809 net.cpp:150] Setting up conv1
I0225 00:21:17.138805 77809 net.cpp:157] Top shape: 50 64 56 56 (10035200)
I0225 00:21:17.138808 77809 net.cpp:165] Memory required for data: 71058800
I0225 00:21:17.138818 77809 layer_factory.hpp:77] Creating layer bn1
I0225 00:21:17.138825 77809 net.cpp:106] Creating Layer bn1
I0225 00:21:17.138828 77809 net.cpp:454] bn1 <- conv1
I0225 00:21:17.138833 77809 net.cpp:411] bn1 -> bn1
I0225 00:21:17.139005 77809 net.cpp:150] Setting up bn1
I0225 00:21:17.139010 77809 net.cpp:157] Top shape: 50 64 56 56 (10035200)
I0225 00:21:17.139014 77809 net.cpp:165] Memory required for data: 111199600
I0225 00:21:17.139022 77809 layer_factory.hpp:77] Creating layer relu1
I0225 00:21:17.139029 77809 net.cpp:106] Creating Layer relu1
I0225 00:21:17.139031 77809 net.cpp:454] relu1 <- bn1
I0225 00:21:17.139035 77809 net.cpp:411] relu1 -> relu1
I0225 00:21:17.139202 77809 net.cpp:150] Setting up relu1
I0225 00:21:17.139209 77809 net.cpp:157] Top shape: 50 64 56 56 (10035200)
I0225 00:21:17.139211 77809 net.cpp:165] Memory required for data: 151340400
I0225 00:21:17.139214 77809 layer_factory.hpp:77] Creating layer pool1
I0225 00:21:17.139220 77809 net.cpp:106] Creating Layer pool1
I0225 00:21:17.139222 77809 net.cpp:454] pool1 <- relu1
I0225 00:21:17.139227 77809 net.cpp:411] pool1 -> pool1
I0225 00:21:17.139257 77809 net.cpp:150] Setting up pool1
I0225 00:21:17.139261 77809 net.cpp:157] Top shape: 50 64 28 28 (2508800)
I0225 00:21:17.139264 77809 net.cpp:165] Memory required for data: 161375600
I0225 00:21:17.139271 77809 layer_factory.hpp:77] Creating layer conv2
I0225 00:21:17.139278 77809 net.cpp:106] Creating Layer conv2
I0225 00:21:17.139281 77809 net.cpp:454] conv2 <- pool1
I0225 00:21:17.139286 77809 net.cpp:411] conv2 -> conv2
I0225 00:21:17.147033 77809 net.cpp:150] Setting up conv2
I0225 00:21:17.147047 77809 net.cpp:157] Top shape: 50 128 14 14 (1254400)
I0225 00:21:17.147049 77809 net.cpp:165] Memory required for data: 166393200
I0225 00:21:17.147054 77809 layer_factory.hpp:77] Creating layer bn2
I0225 00:21:17.147061 77809 net.cpp:106] Creating Layer bn2
I0225 00:21:17.147064 77809 net.cpp:454] bn2 <- conv2
I0225 00:21:17.147069 77809 net.cpp:411] bn2 -> bn2
I0225 00:21:17.147229 77809 net.cpp:150] Setting up bn2
I0225 00:21:17.147234 77809 net.cpp:157] Top shape: 50 128 14 14 (1254400)
I0225 00:21:17.147236 77809 net.cpp:165] Memory required for data: 171410800
I0225 00:21:17.147245 77809 layer_factory.hpp:77] Creating layer relu2
I0225 00:21:17.147251 77809 net.cpp:106] Creating Layer relu2
I0225 00:21:17.147253 77809 net.cpp:454] relu2 <- bn2
I0225 00:21:17.147258 77809 net.cpp:411] relu2 -> relu2
I0225 00:21:17.147512 77809 net.cpp:150] Setting up relu2
I0225 00:21:17.147521 77809 net.cpp:157] Top shape: 50 128 14 14 (1254400)
I0225 00:21:17.147523 77809 net.cpp:165] Memory required for data: 176428400
I0225 00:21:17.147526 77809 layer_factory.hpp:77] Creating layer conv3
I0225 00:21:17.147534 77809 net.cpp:106] Creating Layer conv3
I0225 00:21:17.147537 77809 net.cpp:454] conv3 <- relu2
I0225 00:21:17.147542 77809 net.cpp:411] conv3 -> conv3
I0225 00:21:17.151775 77809 net.cpp:150] Setting up conv3
I0225 00:21:17.151785 77809 net.cpp:157] Top shape: 50 256 14 14 (2508800)
I0225 00:21:17.151788 77809 net.cpp:165] Memory required for data: 186463600
I0225 00:21:17.151794 77809 layer_factory.hpp:77] Creating layer bn3
I0225 00:21:17.151800 77809 net.cpp:106] Creating Layer bn3
I0225 00:21:17.151803 77809 net.cpp:454] bn3 <- conv3
I0225 00:21:17.151808 77809 net.cpp:411] bn3 -> bn3
I0225 00:21:17.152007 77809 net.cpp:150] Setting up bn3
I0225 00:21:17.152014 77809 net.cpp:157] Top shape: 50 256 14 14 (2508800)
I0225 00:21:17.152016 77809 net.cpp:165] Memory required for data: 196498800
I0225 00:21:17.152022 77809 layer_factory.hpp:77] Creating layer relu3
I0225 00:21:17.152029 77809 net.cpp:106] Creating Layer relu3
I0225 00:21:17.152031 77809 net.cpp:454] relu3 <- bn3
I0225 00:21:17.152035 77809 net.cpp:411] relu3 -> relu3
I0225 00:21:17.152204 77809 net.cpp:150] Setting up relu3
I0225 00:21:17.152210 77809 net.cpp:157] Top shape: 50 256 14 14 (2508800)
I0225 00:21:17.152214 77809 net.cpp:165] Memory required for data: 206534000
I0225 00:21:17.152216 77809 layer_factory.hpp:77] Creating layer conv4
I0225 00:21:17.152225 77809 net.cpp:106] Creating Layer conv4
I0225 00:21:17.152227 77809 net.cpp:454] conv4 <- relu3
I0225 00:21:17.152233 77809 net.cpp:411] conv4 -> conv4
I0225 00:21:17.156306 77809 net.cpp:150] Setting up conv4
I0225 00:21:17.156316 77809 net.cpp:157] Top shape: 50 128 14 14 (1254400)
I0225 00:21:17.156318 77809 net.cpp:165] Memory required for data: 211551600
I0225 00:21:17.156327 77809 layer_factory.hpp:77] Creating layer bn4
I0225 00:21:17.156333 77809 net.cpp:106] Creating Layer bn4
I0225 00:21:17.156337 77809 net.cpp:454] bn4 <- conv4
I0225 00:21:17.156342 77809 net.cpp:411] bn4 -> bn4
I0225 00:21:17.156502 77809 net.cpp:150] Setting up bn4
I0225 00:21:17.156507 77809 net.cpp:157] Top shape: 50 128 14 14 (1254400)
I0225 00:21:17.156509 77809 net.cpp:165] Memory required for data: 216569200
I0225 00:21:17.156514 77809 layer_factory.hpp:77] Creating layer relu4
I0225 00:21:17.156519 77809 net.cpp:106] Creating Layer relu4
I0225 00:21:17.156522 77809 net.cpp:454] relu4 <- bn4
I0225 00:21:17.156525 77809 net.cpp:411] relu4 -> relu4
I0225 00:21:17.156687 77809 net.cpp:150] Setting up relu4
I0225 00:21:17.156694 77809 net.cpp:157] Top shape: 50 128 14 14 (1254400)
I0225 00:21:17.156697 77809 net.cpp:165] Memory required for data: 221586800
I0225 00:21:17.156703 77809 layer_factory.hpp:77] Creating layer pool2
I0225 00:21:17.156708 77809 net.cpp:106] Creating Layer pool2
I0225 00:21:17.156710 77809 net.cpp:454] pool2 <- relu4
I0225 00:21:17.156716 77809 net.cpp:411] pool2 -> pool2
I0225 00:21:17.156752 77809 net.cpp:150] Setting up pool2
I0225 00:21:17.156756 77809 net.cpp:157] Top shape: 50 128 7 7 (313600)
I0225 00:21:17.156759 77809 net.cpp:165] Memory required for data: 222841200
I0225 00:21:17.156761 77809 layer_factory.hpp:77] Creating layer fc1
I0225 00:21:17.156770 77809 net.cpp:106] Creating Layer fc1
I0225 00:21:17.156774 77809 net.cpp:454] fc1 <- pool2
I0225 00:21:17.156780 77809 net.cpp:411] fc1 -> fc1
I0225 00:21:17.232143 77809 net.cpp:150] Setting up fc1
I0225 00:21:17.232177 77809 net.cpp:157] Top shape: 50 1024 (51200)
I0225 00:21:17.232180 77809 net.cpp:165] Memory required for data: 223046000
I0225 00:21:17.232192 77809 layer_factory.hpp:77] Creating layer bn5
I0225 00:21:17.232205 77809 net.cpp:106] Creating Layer bn5
I0225 00:21:17.232210 77809 net.cpp:454] bn5 <- fc1
I0225 00:21:17.232220 77809 net.cpp:411] bn5 -> bn5
I0225 00:21:17.232415 77809 net.cpp:150] Setting up bn5
I0225 00:21:17.232421 77809 net.cpp:157] Top shape: 50 1024 (51200)
I0225 00:21:17.232424 77809 net.cpp:165] Memory required for data: 223250800
I0225 00:21:17.232429 77809 layer_factory.hpp:77] Creating layer relu5
I0225 00:21:17.232439 77809 net.cpp:106] Creating Layer relu5
I0225 00:21:17.232441 77809 net.cpp:454] relu5 <- bn5
I0225 00:21:17.232446 77809 net.cpp:411] relu5 -> relu5
I0225 00:21:17.232872 77809 net.cpp:150] Setting up relu5
I0225 00:21:17.232882 77809 net.cpp:157] Top shape: 50 1024 (51200)
I0225 00:21:17.232887 77809 net.cpp:165] Memory required for data: 223455600
I0225 00:21:17.232889 77809 layer_factory.hpp:77] Creating layer fc2
I0225 00:21:17.232899 77809 net.cpp:106] Creating Layer fc2
I0225 00:21:17.232903 77809 net.cpp:454] fc2 <- relu5
I0225 00:21:17.232909 77809 net.cpp:411] fc2 -> fc2
I0225 00:21:17.233332 77809 net.cpp:150] Setting up fc2
I0225 00:21:17.233338 77809 net.cpp:157] Top shape: 50 30 (1500)
I0225 00:21:17.233341 77809 net.cpp:165] Memory required for data: 223461600
I0225 00:21:17.233346 77809 layer_factory.hpp:77] Creating layer fc2_fc2_0_split
I0225 00:21:17.233355 77809 net.cpp:106] Creating Layer fc2_fc2_0_split
I0225 00:21:17.233357 77809 net.cpp:454] fc2_fc2_0_split <- fc2
I0225 00:21:17.233361 77809 net.cpp:411] fc2_fc2_0_split -> fc2_fc2_0_split_0
I0225 00:21:17.233369 77809 net.cpp:411] fc2_fc2_0_split -> fc2_fc2_0_split_1
I0225 00:21:17.233403 77809 net.cpp:150] Setting up fc2_fc2_0_split
I0225 00:21:17.233407 77809 net.cpp:157] Top shape: 50 30 (1500)
I0225 00:21:17.233412 77809 net.cpp:157] Top shape: 50 30 (1500)
I0225 00:21:17.233413 77809 net.cpp:165] Memory required for data: 223473600
I0225 00:21:17.233417 77809 layer_factory.hpp:77] Creating layer accuracy
I0225 00:21:17.233428 77809 net.cpp:106] Creating Layer accuracy
I0225 00:21:17.233433 77809 net.cpp:454] accuracy <- fc2_fc2_0_split_0
I0225 00:21:17.233436 77809 net.cpp:454] accuracy <- label_data_1_split_0
I0225 00:21:17.233443 77809 net.cpp:411] accuracy -> accuracy
…
