…
I0317 13:12:33.976302 76974 net.cpp:322] The NetState phase (0) differed from the phase (1) specified by a rule in layer data
I0317 13:12:33.976469 76974 net.cpp:49] Initializing net from parameters: 
name: "FlickrStyleCaffeNet"
state {
  phase: TRAIN
}
layer {
  name: "data"
  type: "ImageData"
  top: "data"
  top: "pair_label"
  include {
    phase: TRAIN
  }
  transform_param {
    mirror: false
    crop_size: 227
    mean_value: 104
  }
  image_data_param {
    source: "/scratch/16824/data/trainlist_both2.txt"
    batch_size: 50
    shuffle: true
    new_height: 227
    new_width: 227
    root_folder: "/scratch/16824/data/crop_imgs/"
    label_num: 5
  }
}
layer {
  name: "slice_data"
  type: "Slice"
  bottom: "pair_label"
  top: "cls_label"
  top: "bbox_label"
  slice_param {
    slice_point: 1
    axis: 1
  }
}
layer {
  name: "conv1"
  type: "Convolution"
  bottom: "data"
  top: "conv1"
  param {
    lr_mult: 1
    decay_mult: 1
  }
  param {
    lr_mult: 2
    decay_mult: 0
  }
  convolution_param {
    num_output: 96
    kernel_size: 11
    stride: 4
    weight_filler {
      type: "gaussian"
      std: 0.01
    }
    bias_filler {
      type: "constant"
      value: 0
    }
  }
}
layer {
  name: "relu1"
  type: "ReLU"
  bottom: "conv1"
  top: "conv1"
}
layer {
  name: "pool1"
  type: "Pooling"
  bottom: "conv1"
  top: "pool1"
  pooling_param {
    pool: MAX
    kernel_size: 3
    stride: 2
  }
}
layer {
  name: "norm1"
  type: "LRN"
  bottom: "pool1"
  top: "norm1"
  lrn_param {
    local_size: 5
    alpha: 0.0001
    beta: 0.75
  }
}
layer {
  name: "conv2"
  type: "Convolution"
  bottom: "norm1"
  top: "conv2"
  param {
    lr_mult: 1
    decay_mult: 1
  }
  param {
    lr_mult: 2
    decay_mult: 0
  }
  convolution_param {
    num_output: 256
    pad: 2
    kernel_size: 5
    group: 2
    weight_filler {
      type: "gaussian"
      std: 0.01
    }
    bias_filler {
      type: "constant"
      value: 1
    }
  }
}
layer {
  name: "relu2"
  type: "ReLU"
  bottom: "conv2"
  top: "conv2"
}
layer {
  name: "pool2"
  type: "Pooling"
  bottom: "conv2"
  top: "pool2"
  pooling_param {
    pool: MAX
    kernel_size: 3
    stride: 2
  }
}
layer {
  name: "norm2"
  type: "LRN"
  bottom: "pool2"
  top: "norm2"
  lrn_param {
    local_size: 5
    alpha: 0.0001
    beta: 0.75
  }
}
layer {
  name: "conv3"
  type: "Convolution"
  bottom: "norm2"
  top: "conv3"
  param {
    lr_mult: 1
    decay_mult: 1
  }
  param {
    lr_mult: 2
    decay_mult: 0
  }
  convolution_param {
    num_output: 384
    pad: 1
    kernel_size: 3
    weight_filler {
      type: "gaussian"
      std: 0.01
    }
    bias_filler {
      type: "constant"
      value: 0
    }
  }
}
layer {
  name: "relu3"
  type: "ReLU"
  bottom: "conv3"
  top: "conv3"
}
layer {
  name: "conv4"
  type: "Convolution"
  bottom: "conv3"
  top: "conv4"
  param {
    lr_mult: 1
    decay_mult: 1
  }
  param {
    lr_mult: 2
    decay_mult: 0
  }
  convolution_param {
    num_output: 384
    pad: 1
    kernel_size: 3
    group: 2
    weight_filler {
      type: "gaussian"
      std: 0.01
    }
    bias_filler {
      type: "constant"
      value: 1
    }
  }
}
layer {
  name: "relu4"
  type: "ReLU"
  bottom: "conv4"
  top: "conv4"
}
layer {
  name: "conv5"
  type: "Convolution"
  bottom: "conv4"
  top: "conv5"
  param {
    lr_mult: 1
    decay_mult: 1
  }
  param {
    lr_mult: 2
    decay_mult: 0
  }
  convolution_param {
    num_output: 256
    pad: 1
    kernel_size: 3
    group: 2
    weight_filler {
      type: "gaussian"
      std: 0.01
    }
    bias_filler {
      type: "constant"
      value: 1
    }
  }
}
layer {
  name: "relu5"
  type: "ReLU"
  bottom: "conv5"
  top: "conv5"
}
layer {
  name: "pool5"
  type: "Pooling"
  bottom: "conv5"
  top: "pool5"
  pooling_param {
    pool: MAX
    kernel_size: 3
    stride: 2
  }
}
layer {
  name: "fc6"
  type: "InnerProduct"
  bottom: "pool5"
  top: "fc6"
  param {
    lr_mult: 1
    decay_mult: 1
  }
  param {
    lr_mult: 2
    decay_mult: 0
  }
  inner_product_param {
    num_output: 4096
    weight_filler {
      type: "gaussian"
      std: 0.005
    }
    bias_filler {
      type: "constant"
      value: 1
    }
  }
}
layer {
  name: "relu6"
  type: "ReLU"
  bottom: "fc6"
  top: "fc6"
}
layer {
  name: "drop6"
  type: "Dropout"
  bottom: "fc6"
  top: "fc6"
  dropout_param {
    dropout_ratio: 0.5
  }
}
layer {
  name: "fc7"
  type: "InnerProduct"
  bottom: "fc6"
  top: "fc7"
  param {
    lr_mult: 1
    decay_mult: 1
  }
  param {
    lr_mult: 2
    decay_mult: 0
  }
  inner_product_param {
    num_output: 4096
    weight_filler {
      type: "gaussian"
      std: 0.005
    }
    bias_filler {
      type: "constant"
      value: 1
    }
  }
}
layer {
  name: "relu7"
  type: "ReLU"
  bottom: "fc7"
  top: "fc7"
}
layer {
  name: "drop7"
  type: "Dropout"
  bottom: "fc7"
  top: "fc7"
  dropout_param {
    dropout_ratio: 0.5
  }
}
layer {
  name: "fc8_cls"
  type: "InnerProduct"
  bottom: "fc7"
  top: "fc8_cls"
  param {
    lr_mult: 1
    decay_mult: 1
  }
  param {
    lr_mult: 2
    decay_mult: 0
  }
  inner_product_param {
    num_output: 30
    weight_filler {
      type: "gaussian"
      std: 0.01
    }
    bias_filler {
      type: "constant"
      value: 0
    }
  }
}
layer {
  name: "fc8_reg"
  type: "InnerProduct"
  bottom: "fc7"
  top: "fc8_reg"
  param {
    lr_mult: 1
    decay_mult: 1
  }
  param {
    lr_mult: 2
    decay_mult: 0
  }
  inner_product_param {
    num_output: 120
    weight_filler {
      type: "gaussian"
      std: 0.001
    }
    bias_filler {
      type: "constant"
      value: 0
    }
  }
}
layer {
  name: "drop_output"
  type: "DropOutput"
  bottom: "fc8_reg"
  bottom: "cls_label"
  bottom: "bbox_label"
  top: "drop_data_output"
  top: "drop_label_output"
}
layer {
  name: "cls_loss"
  type: "SoftmaxWithLoss"
  bottom: "fc8_cls"
  bottom: "cls_label"
  top: "cls_loss"
  loss_weight: 1
}
layer {
  name: "reg_loss"
  type: "EuclideanLoss"
  bottom: "drop_data_output"
  bottom: "drop_label_output"
  top: "reg_loss"
  loss_weight: 1
}
I0317 13:12:33.976572 76974 layer_factory.hpp:77] Creating layer data
I0317 13:12:33.976590 76974 net.cpp:106] Creating Layer data
I0317 13:12:33.976596 76974 net.cpp:411] data -> data
I0317 13:12:33.976608 76974 net.cpp:411] data -> pair_label
I0317 13:12:33.977030 76974 image_data_layer.cpp:40] Opening file /scratch/16824/data/trainlist_both2.txt
I0317 13:12:34.052203 76974 image_data_layer.cpp:57] Shuffling data
I0317 13:12:34.057456 76974 image_data_layer.cpp:62] A total of 36752 images.
I0317 13:12:34.065861 76974 image_data_layer.cpp:89] output data size: 50,3,227,227
I0317 13:12:34.122658 76974 net.cpp:150] Setting up data
I0317 13:12:34.122685 76974 net.cpp:157] Top shape: 50 3 227 227 (7729350)
I0317 13:12:34.122689 76974 net.cpp:157] Top shape: 50 5 1 1 (250)
I0317 13:12:34.122692 76974 net.cpp:165] Memory required for data: 30918400
I0317 13:12:34.122699 76974 layer_factory.hpp:77] Creating layer slice_data
I0317 13:12:34.122725 76974 net.cpp:106] Creating Layer slice_data
I0317 13:12:34.122730 76974 net.cpp:454] slice_data <- pair_label
I0317 13:12:34.122737 76974 net.cpp:411] slice_data -> cls_label
I0317 13:12:34.122746 76974 net.cpp:411] slice_data -> bbox_label
I0317 13:12:34.122792 76974 net.cpp:150] Setting up slice_data
I0317 13:12:34.122797 76974 net.cpp:157] Top shape: 50 1 1 1 (50)
I0317 13:12:34.122800 76974 net.cpp:157] Top shape: 50 4 1 1 (200)
I0317 13:12:34.122803 76974 net.cpp:165] Memory required for data: 30919400
I0317 13:12:34.122809 76974 layer_factory.hpp:77] Creating layer cls_label_slice_data_0_split
I0317 13:12:34.122815 76974 net.cpp:106] Creating Layer cls_label_slice_data_0_split
I0317 13:12:34.122817 76974 net.cpp:454] cls_label_slice_data_0_split <- cls_label
I0317 13:12:34.122822 76974 net.cpp:411] cls_label_slice_data_0_split -> cls_label_slice_data_0_split_0
I0317 13:12:34.122828 76974 net.cpp:411] cls_label_slice_data_0_split -> cls_label_slice_data_0_split_1
I0317 13:12:34.122997 76974 net.cpp:150] Setting up cls_label_slice_data_0_split
I0317 13:12:34.123008 76974 net.cpp:157] Top shape: 50 1 1 1 (50)
I0317 13:12:34.123013 76974 net.cpp:157] Top shape: 50 1 1 1 (50)
I0317 13:12:34.123014 76974 net.cpp:165] Memory required for data: 30919800
I0317 13:12:34.123018 76974 layer_factory.hpp:77] Creating layer conv1
I0317 13:12:34.123033 76974 net.cpp:106] Creating Layer conv1
I0317 13:12:34.123035 76974 net.cpp:454] conv1 <- data
I0317 13:12:34.123041 76974 net.cpp:411] conv1 -> conv1
I0317 13:12:34.344944 76974 net.cpp:150] Setting up conv1
I0317 13:12:34.344969 76974 net.cpp:157] Top shape: 50 96 55 55 (14520000)
I0317 13:12:34.344972 76974 net.cpp:165] Memory required for data: 88999800
I0317 13:12:34.344987 76974 layer_factory.hpp:77] Creating layer relu1
I0317 13:12:34.345000 76974 net.cpp:106] Creating Layer relu1
I0317 13:12:34.345005 76974 net.cpp:454] relu1 <- conv1
I0317 13:12:34.345010 76974 net.cpp:397] relu1 -> conv1 (in-place)
I0317 13:12:34.345234 76974 net.cpp:150] Setting up relu1
I0317 13:12:34.345242 76974 net.cpp:157] Top shape: 50 96 55 55 (14520000)
I0317 13:12:34.345245 76974 net.cpp:165] Memory required for data: 147079800
I0317 13:12:34.345248 76974 layer_factory.hpp:77] Creating layer pool1
I0317 13:12:34.345257 76974 net.cpp:106] Creating Layer pool1
I0317 13:12:34.345258 76974 net.cpp:454] pool1 <- conv1
I0317 13:12:34.345263 76974 net.cpp:411] pool1 -> pool1
I0317 13:12:34.345300 76974 net.cpp:150] Setting up pool1
I0317 13:12:34.345304 76974 net.cpp:157] Top shape: 50 96 27 27 (3499200)
I0317 13:12:34.345307 76974 net.cpp:165] Memory required for data: 161076600
I0317 13:12:34.345309 76974 layer_factory.hpp:77] Creating layer norm1
I0317 13:12:34.345316 76974 net.cpp:106] Creating Layer norm1
I0317 13:12:34.345319 76974 net.cpp:454] norm1 <- pool1
I0317 13:12:34.345324 76974 net.cpp:411] norm1 -> norm1
I0317 13:12:34.345469 76974 net.cpp:150] Setting up norm1
I0317 13:12:34.345476 76974 net.cpp:157] Top shape: 50 96 27 27 (3499200)
I0317 13:12:34.345479 76974 net.cpp:165] Memory required for data: 175073400
I0317 13:12:34.345481 76974 layer_factory.hpp:77] Creating layer conv2
I0317 13:12:34.345491 76974 net.cpp:106] Creating Layer conv2
I0317 13:12:34.345494 76974 net.cpp:454] conv2 <- norm1
I0317 13:12:34.345500 76974 net.cpp:411] conv2 -> conv2
I0317 13:12:34.350616 76974 net.cpp:150] Setting up conv2
I0317 13:12:34.350627 76974 net.cpp:157] Top shape: 50 256 27 27 (9331200)
I0317 13:12:34.350630 76974 net.cpp:165] Memory required for data: 212398200
I0317 13:12:34.350638 76974 layer_factory.hpp:77] Creating layer relu2
I0317 13:12:34.350646 76974 net.cpp:106] Creating Layer relu2
I0317 13:12:34.350648 76974 net.cpp:454] relu2 <- conv2
I0317 13:12:34.350652 76974 net.cpp:397] relu2 -> conv2 (in-place)
I0317 13:12:34.350795 76974 net.cpp:150] Setting up relu2
I0317 13:12:34.350801 76974 net.cpp:157] Top shape: 50 256 27 27 (9331200)
I0317 13:12:34.350805 76974 net.cpp:165] Memory required for data: 249723000
I0317 13:12:34.350807 76974 layer_factory.hpp:77] Creating layer pool2
I0317 13:12:34.350816 76974 net.cpp:106] Creating Layer pool2
I0317 13:12:34.350819 76974 net.cpp:454] pool2 <- conv2
I0317 13:12:34.350824 76974 net.cpp:411] pool2 -> pool2
I0317 13:12:34.350857 76974 net.cpp:150] Setting up pool2
I0317 13:12:34.350862 76974 net.cpp:157] Top shape: 50 256 13 13 (2163200)
I0317 13:12:34.350864 76974 net.cpp:165] Memory required for data: 258375800
I0317 13:12:34.350867 76974 layer_factory.hpp:77] Creating layer norm2
I0317 13:12:34.350872 76974 net.cpp:106] Creating Layer norm2
I0317 13:12:34.350878 76974 net.cpp:454] norm2 <- pool2
I0317 13:12:34.350883 76974 net.cpp:411] norm2 -> norm2
I0317 13:12:34.351133 76974 net.cpp:150] Setting up norm2
I0317 13:12:34.351142 76974 net.cpp:157] Top shape: 50 256 13 13 (2163200)
I0317 13:12:34.351145 76974 net.cpp:165] Memory required for data: 267028600
I0317 13:12:34.351147 76974 layer_factory.hpp:77] Creating layer conv3
I0317 13:12:34.351155 76974 net.cpp:106] Creating Layer conv3
I0317 13:12:34.351160 76974 net.cpp:454] conv3 <- norm2
I0317 13:12:34.351166 76974 net.cpp:411] conv3 -> conv3
I0317 13:12:34.361655 76974 net.cpp:150] Setting up conv3
I0317 13:12:34.361666 76974 net.cpp:157] Top shape: 50 384 13 13 (3244800)
I0317 13:12:34.361670 76974 net.cpp:165] Memory required for data: 280007800
I0317 13:12:34.361677 76974 layer_factory.hpp:77] Creating layer relu3
I0317 13:12:34.361683 76974 net.cpp:106] Creating Layer relu3
I0317 13:12:34.361686 76974 net.cpp:454] relu3 <- conv3
I0317 13:12:34.361690 76974 net.cpp:397] relu3 -> conv3 (in-place)
I0317 13:12:34.361835 76974 net.cpp:150] Setting up relu3
I0317 13:12:34.361841 76974 net.cpp:157] Top shape: 50 384 13 13 (3244800)
I0317 13:12:34.361843 76974 net.cpp:165] Memory required for data: 292987000
I0317 13:12:34.361846 76974 layer_factory.hpp:77] Creating layer conv4
I0317 13:12:34.361855 76974 net.cpp:106] Creating Layer conv4
I0317 13:12:34.361857 76974 net.cpp:454] conv4 <- conv3
I0317 13:12:34.361862 76974 net.cpp:411] conv4 -> conv4
I0317 13:12:34.370491 76974 net.cpp:150] Setting up conv4
I0317 13:12:34.370501 76974 net.cpp:157] Top shape: 50 384 13 13 (3244800)
I0317 13:12:34.370502 76974 net.cpp:165] Memory required for data: 305966200
I0317 13:12:34.370507 76974 layer_factory.hpp:77] Creating layer relu4
I0317 13:12:34.370515 76974 net.cpp:106] Creating Layer relu4
I0317 13:12:34.370518 76974 net.cpp:454] relu4 <- conv4
I0317 13:12:34.370522 76974 net.cpp:397] relu4 -> conv4 (in-place)
I0317 13:12:34.370668 76974 net.cpp:150] Setting up relu4
I0317 13:12:34.370673 76974 net.cpp:157] Top shape: 50 384 13 13 (3244800)
I0317 13:12:34.370676 76974 net.cpp:165] Memory required for data: 318945400
I0317 13:12:34.370678 76974 layer_factory.hpp:77] Creating layer conv5
I0317 13:12:34.370687 76974 net.cpp:106] Creating Layer conv5
I0317 13:12:34.370689 76974 net.cpp:454] conv5 <- conv4
I0317 13:12:34.370697 76974 net.cpp:411] conv5 -> conv5
I0317 13:12:34.377140 76974 net.cpp:150] Setting up conv5
I0317 13:12:34.377148 76974 net.cpp:157] Top shape: 50 256 13 13 (2163200)
I0317 13:12:34.377151 76974 net.cpp:165] Memory required for data: 327598200
I0317 13:12:34.377159 76974 layer_factory.hpp:77] Creating layer relu5
I0317 13:12:34.377167 76974 net.cpp:106] Creating Layer relu5
I0317 13:12:34.377171 76974 net.cpp:454] relu5 <- conv5
I0317 13:12:34.377174 76974 net.cpp:397] relu5 -> conv5 (in-place)
I0317 13:12:34.377424 76974 net.cpp:150] Setting up relu5
I0317 13:12:34.377431 76974 net.cpp:157] Top shape: 50 256 13 13 (2163200)
I0317 13:12:34.377434 76974 net.cpp:165] Memory required for data: 336251000
I0317 13:12:34.377437 76974 layer_factory.hpp:77] Creating layer pool5
I0317 13:12:34.377445 76974 net.cpp:106] Creating Layer pool5
I0317 13:12:34.377447 76974 net.cpp:454] pool5 <- conv5
I0317 13:12:34.377454 76974 net.cpp:411] pool5 -> pool5
I0317 13:12:34.377490 76974 net.cpp:150] Setting up pool5
I0317 13:12:34.377495 76974 net.cpp:157] Top shape: 50 256 6 6 (460800)
I0317 13:12:34.377496 76974 net.cpp:165] Memory required for data: 338094200
I0317 13:12:34.377498 76974 layer_factory.hpp:77] Creating layer fc6
I0317 13:12:34.377506 76974 net.cpp:106] Creating Layer fc6
I0317 13:12:34.377508 76974 net.cpp:454] fc6 <- pool5
I0317 13:12:34.377514 76974 net.cpp:411] fc6 -> fc6
I0317 13:12:34.778293 76974 net.cpp:150] Setting up fc6
I0317 13:12:34.778321 76974 net.cpp:157] Top shape: 50 4096 (204800)
I0317 13:12:34.778324 76974 net.cpp:165] Memory required for data: 338913400
I0317 13:12:34.778332 76974 layer_factory.hpp:77] Creating layer relu6
I0317 13:12:34.778343 76974 net.cpp:106] Creating Layer relu6
I0317 13:12:34.778352 76974 net.cpp:454] relu6 <- fc6
I0317 13:12:34.778357 76974 net.cpp:397] relu6 -> fc6 (in-place)
I0317 13:12:34.778556 76974 net.cpp:150] Setting up relu6
I0317 13:12:34.778563 76974 net.cpp:157] Top shape: 50 4096 (204800)
I0317 13:12:34.778565 76974 net.cpp:165] Memory required for data: 339732600
I0317 13:12:34.778568 76974 layer_factory.hpp:77] Creating layer drop6
I0317 13:12:34.778584 76974 net.cpp:106] Creating Layer drop6
I0317 13:12:34.778585 76974 net.cpp:454] drop6 <- fc6
I0317 13:12:34.778590 76974 net.cpp:397] drop6 -> fc6 (in-place)
I0317 13:12:34.778614 76974 net.cpp:150] Setting up drop6
I0317 13:12:34.778619 76974 net.cpp:157] Top shape: 50 4096 (204800)
I0317 13:12:34.778620 76974 net.cpp:165] Memory required for data: 340551800
I0317 13:12:34.778622 76974 layer_factory.hpp:77] Creating layer fc7
I0317 13:12:34.778630 76974 net.cpp:106] Creating Layer fc7
I0317 13:12:34.778633 76974 net.cpp:454] fc7 <- fc6
I0317 13:12:34.778636 76974 net.cpp:411] fc7 -> fc7
I0317 13:12:34.955876 76974 net.cpp:150] Setting up fc7
I0317 13:12:34.955904 76974 net.cpp:157] Top shape: 50 4096 (204800)
I0317 13:12:34.955907 76974 net.cpp:165] Memory required for data: 341371000
I0317 13:12:34.955916 76974 layer_factory.hpp:77] Creating layer relu7
I0317 13:12:34.955925 76974 net.cpp:106] Creating Layer relu7
I0317 13:12:34.955929 76974 net.cpp:454] relu7 <- fc7
I0317 13:12:34.955935 76974 net.cpp:397] relu7 -> fc7 (in-place)
I0317 13:12:34.956311 76974 net.cpp:150] Setting up relu7
I0317 13:12:34.956320 76974 net.cpp:157] Top shape: 50 4096 (204800)
I0317 13:12:34.956322 76974 net.cpp:165] Memory required for data: 342190200
I0317 13:12:34.956324 76974 layer_factory.hpp:77] Creating layer drop7
I0317 13:12:34.956333 76974 net.cpp:106] Creating Layer drop7
I0317 13:12:34.956336 76974 net.cpp:454] drop7 <- fc7
I0317 13:12:34.956339 76974 net.cpp:397] drop7 -> fc7 (in-place)
I0317 13:12:34.956365 76974 net.cpp:150] Setting up drop7
I0317 13:12:34.956369 76974 net.cpp:157] Top shape: 50 4096 (204800)
I0317 13:12:34.956372 76974 net.cpp:165] Memory required for data: 343009400
I0317 13:12:34.956374 76974 layer_factory.hpp:77] Creating layer fc7_drop7_0_split
I0317 13:12:34.956378 76974 net.cpp:106] Creating Layer fc7_drop7_0_split
I0317 13:12:34.956380 76974 net.cpp:454] fc7_drop7_0_split <- fc7
I0317 13:12:34.956385 76974 net.cpp:411] fc7_drop7_0_split -> fc7_drop7_0_split_0
I0317 13:12:34.956390 76974 net.cpp:411] fc7_drop7_0_split -> fc7_drop7_0_split_1
I0317 13:12:34.956423 76974 net.cpp:150] Setting up fc7_drop7_0_split
I0317 13:12:34.956429 76974 net.cpp:157] Top shape: 50 4096 (204800)
I0317 13:12:34.956432 76974 net.cpp:157] Top shape: 50 4096 (204800)
I0317 13:12:34.956434 76974 net.cpp:165] Memory required for data: 344647800
I0317 13:12:34.956437 76974 layer_factory.hpp:77] Creating layer fc8_cls
I0317 13:12:34.956444 76974 net.cpp:106] Creating Layer fc8_cls
I0317 13:12:34.956446 76974 net.cpp:454] fc8_cls <- fc7_drop7_0_split_0
I0317 13:12:34.956451 76974 net.cpp:411] fc8_cls -> fc8_cls
I0317 13:12:34.958159 76974 net.cpp:150] Setting up fc8_cls
I0317 13:12:34.958168 76974 net.cpp:157] Top shape: 50 30 (1500)
I0317 13:12:34.958170 76974 net.cpp:165] Memory required for data: 344653800
I0317 13:12:34.958175 76974 layer_factory.hpp:77] Creating layer fc8_reg
I0317 13:12:34.958184 76974 net.cpp:106] Creating Layer fc8_reg
I0317 13:12:34.958185 76974 net.cpp:454] fc8_reg <- fc7_drop7_0_split_1
I0317 13:12:34.958190 76974 net.cpp:411] fc8_reg -> fc8_reg
I0317 13:12:34.963668 76974 net.cpp:150] Setting up fc8_reg
I0317 13:12:34.963676 76974 net.cpp:157] Top shape: 50 120 (6000)
I0317 13:12:34.963680 76974 net.cpp:165] Memory required for data: 344677800
I0317 13:12:34.963688 76974 layer_factory.hpp:77] Creating layer drop_output
I0317 13:12:34.963693 76974 net.cpp:106] Creating Layer drop_output
I0317 13:12:34.963696 76974 net.cpp:454] drop_output <- fc8_reg
I0317 13:12:34.963701 76974 net.cpp:454] drop_output <- cls_label_slice_data_0_split_0
I0317 13:12:34.963703 76974 net.cpp:454] drop_output <- bbox_label
I0317 13:12:34.963711 76974 net.cpp:411] drop_output -> drop_data_output
I0317 13:12:34.963716 76974 net.cpp:411] drop_output -> drop_label_output
I0317 13:12:34.963748 76974 net.cpp:150] Setting up drop_output
I0317 13:12:34.963752 76974 net.cpp:157] Top shape: 50 120 (6000)
I0317 13:12:34.963755 76974 net.cpp:157] Top shape: 50 120 (6000)
I0317 13:12:34.963757 76974 net.cpp:165] Memory required for data: 344725800
I0317 13:12:34.963759 76974 layer_factory.hpp:77] Creating layer cls_loss
I0317 13:12:34.963768 76974 net.cpp:106] Creating Layer cls_loss
I0317 13:12:34.963769 76974 net.cpp:454] cls_loss <- fc8_cls
I0317 13:12:34.963773 76974 net.cpp:454] cls_loss <- cls_label_slice_data_0_split_1
I0317 13:12:34.963778 76974 net.cpp:411] cls_loss -> cls_loss
…
